{"class_name": "Functional", "config": {"name": "model", "layers": [{"class_name": "InputLayer", "config": {"batch_input_shape": [null, 256, 256, 1], "dtype": "float32", "sparse": false, "ragged": false, "name": "input_1"}, "name": "input_1", "inbound_nodes": []}, {"class_name": "Conv2D", "config": {"name": "conv2d", "trainable": true, "dtype": "float32", "filters": 16, "kernel_size": [1, 1], "strides": [1, 1], "padding": "same", "data_format": "channels_last", "dilation_rate": [1, 1], "groups": 1, "activation": "linear", "use_bias": true, "kernel_initializer": {"class_name": "GlorotUniform", "config": {"seed": null}}, "bias_initializer": {"class_name": "Zeros", "config": {}}, "kernel_regularizer": null, "bias_regularizer": null, "activity_regularizer": null, "kernel_constraint": null, "bias_constraint": null}, "name": "conv2d", "inbound_nodes": [[["input_1", 0, 0, {}]]]}, {"class_name": "Conv2D", "config": {"name": "conv2d_1", "trainable": true, "dtype": "float32", "filters": 16, "kernel_size": [3, 3], "strides": [1, 1], "padding": "same", "data_format": "channels_last", "dilation_rate": [1, 1], "groups": 1, "activation": "linear", "use_bias": true, "kernel_initializer": {"class_name": "GlorotUniform", "config": {"seed": null}}, "bias_initializer": {"class_name": "Zeros", "config": {}}, "kernel_regularizer": null, "bias_regularizer": null, "activity_regularizer": null, "kernel_constraint": null, "bias_constraint": null}, "name": "conv2d_1", "inbound_nodes": [[["conv2d", 0, 0, {}]]]}, {"class_name": "MCDropout", "config": {"name": "mc_dropout", "trainable": true, "dtype": "float32", "rate": 0.2, "noise_shape": null, "seed": null}, "name": "mc_dropout", "inbound_nodes": [[["conv2d_1", 0, 0, {}]]]}, {"class_name": "Activation", "config": {"name": "activation", "trainable": true, "dtype": "float32", "activation": "relu"}, "name": "activation", "inbound_nodes": [[["mc_dropout", 0, 0, {}]]]}, {"class_name": "Add", "config": {"name": "add", "trainable": true, "dtype": "float32"}, "name": "add", "inbound_nodes": [[["activation", 0, 0, {}], ["conv2d", 0, 0, {}]]]}, {"class_name": "Conv2D", "config": {"name": "conv2d_2", "trainable": true, "dtype": "float32", "filters": 16, "kernel_size": [3, 3], "strides": [1, 1], "padding": "same", "data_format": "channels_last", "dilation_rate": [1, 1], "groups": 1, "activation": "linear", "use_bias": true, "kernel_initializer": {"class_name": "GlorotUniform", "config": {"seed": null}}, "bias_initializer": {"class_name": "Zeros", "config": {}}, "kernel_regularizer": null, "bias_regularizer": null, "activity_regularizer": null, "kernel_constraint": null, "bias_constraint": null}, "name": "conv2d_2", "inbound_nodes": [[["add", 0, 0, {}]]]}, {"class_name": "Activation", "config": {"name": "activation_1", "trainable": true, "dtype": "float32", "activation": "relu"}, "name": "activation_1", "inbound_nodes": [[["conv2d_2", 0, 0, {}]]]}, {"class_name": "Add", "config": {"name": "add_1", "trainable": true, "dtype": "float32"}, "name": "add_1", "inbound_nodes": [[["activation_1", 0, 0, {}], ["conv2d", 0, 0, {}]]]}, {"class_name": "Conv2D", "config": {"name": "conv2d_3", "trainable": true, "dtype": "float32", "filters": 16, "kernel_size": [3, 3], "strides": [1, 1], "padding": "same", "data_format": "channels_last", "dilation_rate": [1, 1], "groups": 1, "activation": "linear", "use_bias": true, "kernel_initializer": {"class_name": "GlorotUniform", "config": {"seed": null}}, "bias_initializer": {"class_name": "Zeros", "config": {}}, "kernel_regularizer": null, "bias_regularizer": null, "activity_regularizer": null, "kernel_constraint": null, "bias_constraint": null}, "name": "conv2d_3", "inbound_nodes": [[["add_1", 0, 0, {}]]]}, {"class_name": "Activation", "config": {"name": "activation_2", "trainable": true, "dtype": "float32", "activation": "relu"}, "name": "activation_2", "inbound_nodes": [[["conv2d_3", 0, 0, {}]]]}, {"class_name": "Conv2D", "config": {"name": "conv2d_4", "trainable": true, "dtype": "float32", "filters": 16, "kernel_size": [3, 3], "strides": [1, 1], "padding": "same", "data_format": "channels_last", "dilation_rate": [1, 1], "groups": 1, "activation": "linear", "use_bias": true, "kernel_initializer": {"class_name": "GlorotUniform", "config": {"seed": null}}, "bias_initializer": {"class_name": "Zeros", "config": {}}, "kernel_regularizer": null, "bias_regularizer": null, "activity_regularizer": null, "kernel_constraint": null, "bias_constraint": null}, "name": "conv2d_4", "inbound_nodes": [[["activation_2", 0, 0, {}]]]}, {"class_name": "MCDropout", "config": {"name": "mc_dropout_1", "trainable": true, "dtype": "float32", "rate": 0.2, "noise_shape": null, "seed": null}, "name": "mc_dropout_1", "inbound_nodes": [[["conv2d_4", 0, 0, {}]]]}, {"class_name": "Activation", "config": {"name": "activation_3", "trainable": true, "dtype": "float32", "activation": "relu"}, "name": "activation_3", "inbound_nodes": [[["mc_dropout_1", 0, 0, {}]]]}, {"class_name": "Add", "config": {"name": "add_2", "trainable": true, "dtype": "float32"}, "name": "add_2", "inbound_nodes": [[["activation_3", 0, 0, {}], ["activation_2", 0, 0, {}]]]}, {"class_name": "Conv2D", "config": {"name": "conv2d_5", "trainable": true, "dtype": "float32", "filters": 16, "kernel_size": [3, 3], "strides": [1, 1], "padding": "same", "data_format": "channels_last", "dilation_rate": [1, 1], "groups": 1, "activation": "linear", "use_bias": true, "kernel_initializer": {"class_name": "GlorotUniform", "config": {"seed": null}}, "bias_initializer": {"class_name": "Zeros", "config": {}}, "kernel_regularizer": null, "bias_regularizer": null, "activity_regularizer": null, "kernel_constraint": null, "bias_constraint": null}, "name": "conv2d_5", "inbound_nodes": [[["add_2", 0, 0, {}]]]}, {"class_name": "Activation", "config": {"name": "activation_4", "trainable": true, "dtype": "float32", "activation": "relu"}, "name": "activation_4", "inbound_nodes": [[["conv2d_5", 0, 0, {}]]]}, {"class_name": "Add", "config": {"name": "add_3", "trainable": true, "dtype": "float32"}, "name": "add_3", "inbound_nodes": [[["activation_4", 0, 0, {}], ["activation_2", 0, 0, {}]]]}, {"class_name": "Conv2D", "config": {"name": "conv2d_6", "trainable": true, "dtype": "float32", "filters": 16, "kernel_size": [3, 3], "strides": [1, 1], "padding": "same", "data_format": "channels_last", "dilation_rate": [1, 1], "groups": 1, "activation": "linear", "use_bias": true, "kernel_initializer": {"class_name": "GlorotUniform", "config": {"seed": null}}, "bias_initializer": {"class_name": "Zeros", "config": {}}, "kernel_regularizer": null, "bias_regularizer": null, "activity_regularizer": null, "kernel_constraint": null, "bias_constraint": null}, "name": "conv2d_6", "inbound_nodes": [[["add_3", 0, 0, {}]]]}, {"class_name": "Activation", "config": {"name": "activation_5", "trainable": true, "dtype": "float32", "activation": "relu"}, "name": "activation_5", "inbound_nodes": [[["conv2d_6", 0, 0, {}]]]}, {"class_name": "Add", "config": {"name": "add_4", "trainable": true, "dtype": "float32"}, "name": "add_4", "inbound_nodes": [[["activation_5", 0, 0, {}], ["conv2d", 0, 0, {}]]]}, {"class_name": "MaxPooling2D", "config": {"name": "max_pooling2d", "trainable": true, "dtype": "float32", "pool_size": [2, 2], "padding": "valid", "strides": [2, 2], "data_format": "channels_last"}, "name": "max_pooling2d", "inbound_nodes": [[["add_4", 0, 0, {}]]]}, {"class_name": "Conv2D", "config": {"name": "conv2d_7", "trainable": true, "dtype": "float32", "filters": 32, "kernel_size": [1, 1], "strides": [1, 1], "padding": "same", "data_format": "channels_last", "dilation_rate": [1, 1], "groups": 1, "activation": "linear", "use_bias": true, "kernel_initializer": {"class_name": "GlorotUniform", "config": {"seed": null}}, "bias_initializer": {"class_name": "Zeros", "config": {}}, "kernel_regularizer": null, "bias_regularizer": null, "activity_regularizer": null, "kernel_constraint": null, "bias_constraint": null}, "name": "conv2d_7", "inbound_nodes": [[["max_pooling2d", 0, 0, {}]]]}, {"class_name": "Conv2D", "config": {"name": "conv2d_8", "trainable": true, "dtype": "float32", "filters": 32, "kernel_size": [3, 3], "strides": [1, 1], "padding": "same", "data_format": "channels_last", "dilation_rate": [1, 1], "groups": 1, "activation": "linear", "use_bias": true, "kernel_initializer": {"class_name": "GlorotUniform", "config": {"seed": null}}, "bias_initializer": {"class_name": "Zeros", "config": {}}, "kernel_regularizer": null, "bias_regularizer": null, "activity_regularizer": null, "kernel_constraint": null, "bias_constraint": null}, "name": "conv2d_8", "inbound_nodes": [[["conv2d_7", 0, 0, {}]]]}, {"class_name": "MCDropout", "config": {"name": "mc_dropout_2", "trainable": true, "dtype": "float32", "rate": 0.2, "noise_shape": null, "seed": null}, "name": "mc_dropout_2", "inbound_nodes": [[["conv2d_8", 0, 0, {}]]]}, {"class_name": "Activation", "config": {"name": "activation_6", "trainable": true, "dtype": "float32", "activation": "relu"}, "name": "activation_6", "inbound_nodes": [[["mc_dropout_2", 0, 0, {}]]]}, {"class_name": "Add", "config": {"name": "add_5", "trainable": true, "dtype": "float32"}, "name": "add_5", "inbound_nodes": [[["activation_6", 0, 0, {}], ["conv2d_7", 0, 0, {}]]]}, {"class_name": "Conv2D", "config": {"name": "conv2d_9", "trainable": true, "dtype": "float32", "filters": 32, "kernel_size": [3, 3], "strides": [1, 1], "padding": "same", "data_format": "channels_last", "dilation_rate": [1, 1], "groups": 1, "activation": "linear", "use_bias": true, "kernel_initializer": {"class_name": "GlorotUniform", "config": {"seed": null}}, "bias_initializer": {"class_name": "Zeros", "config": {}}, "kernel_regularizer": null, "bias_regularizer": null, "activity_regularizer": null, "kernel_constraint": null, "bias_constraint": null}, "name": "conv2d_9", "inbound_nodes": [[["add_5", 0, 0, {}]]]}, {"class_name": "Activation", "config": {"name": "activation_7", "trainable": true, "dtype": "float32", "activation": "relu"}, "name": "activation_7", "inbound_nodes": [[["conv2d_9", 0, 0, {}]]]}, {"class_name": "Add", "config": {"name": "add_6", "trainable": true, "dtype": "float32"}, "name": "add_6", "inbound_nodes": [[["activation_7", 0, 0, {}], ["conv2d_7", 0, 0, {}]]]}, {"class_name": "Conv2D", "config": {"name": "conv2d_10", "trainable": true, "dtype": "float32", "filters": 32, "kernel_size": [3, 3], "strides": [1, 1], "padding": "same", "data_format": "channels_last", "dilation_rate": [1, 1], "groups": 1, "activation": "linear", "use_bias": true, "kernel_initializer": {"class_name": "GlorotUniform", "config": {"seed": null}}, "bias_initializer": {"class_name": "Zeros", "config": {}}, "kernel_regularizer": null, "bias_regularizer": null, "activity_regularizer": null, "kernel_constraint": null, "bias_constraint": null}, "name": "conv2d_10", "inbound_nodes": [[["add_6", 0, 0, {}]]]}, {"class_name": "Activation", "config": {"name": "activation_8", "trainable": true, "dtype": "float32", "activation": "relu"}, "name": "activation_8", "inbound_nodes": [[["conv2d_10", 0, 0, {}]]]}, {"class_name": "Conv2D", "config": {"name": "conv2d_11", "trainable": true, "dtype": "float32", "filters": 32, "kernel_size": [3, 3], "strides": [1, 1], "padding": "same", "data_format": "channels_last", "dilation_rate": [1, 1], "groups": 1, "activation": "linear", "use_bias": true, "kernel_initializer": {"class_name": "GlorotUniform", "config": {"seed": null}}, "bias_initializer": {"class_name": "Zeros", "config": {}}, "kernel_regularizer": null, "bias_regularizer": null, "activity_regularizer": null, "kernel_constraint": null, "bias_constraint": null}, "name": "conv2d_11", "inbound_nodes": [[["activation_8", 0, 0, {}]]]}, {"class_name": "MCDropout", "config": {"name": "mc_dropout_3", "trainable": true, "dtype": "float32", "rate": 0.2, "noise_shape": null, "seed": null}, "name": "mc_dropout_3", "inbound_nodes": [[["conv2d_11", 0, 0, {}]]]}, {"class_name": "Activation", "config": {"name": "activation_9", "trainable": true, "dtype": "float32", "activation": "relu"}, "name": "activation_9", "inbound_nodes": [[["mc_dropout_3", 0, 0, {}]]]}, {"class_name": "Add", "config": {"name": "add_7", "trainable": true, "dtype": "float32"}, "name": "add_7", "inbound_nodes": [[["activation_9", 0, 0, {}], ["activation_8", 0, 0, {}]]]}, {"class_name": "Conv2D", "config": {"name": "conv2d_12", "trainable": true, "dtype": "float32", "filters": 32, "kernel_size": [3, 3], "strides": [1, 1], "padding": "same", "data_format": "channels_last", "dilation_rate": [1, 1], "groups": 1, "activation": "linear", "use_bias": true, "kernel_initializer": {"class_name": "GlorotUniform", "config": {"seed": null}}, "bias_initializer": {"class_name": "Zeros", "config": {}}, "kernel_regularizer": null, "bias_regularizer": null, "activity_regularizer": null, "kernel_constraint": null, "bias_constraint": null}, "name": "conv2d_12", "inbound_nodes": [[["add_7", 0, 0, {}]]]}, {"class_name": "Activation", "config": {"name": "activation_10", "trainable": true, "dtype": "float32", "activation": "relu"}, "name": "activation_10", "inbound_nodes": [[["conv2d_12", 0, 0, {}]]]}, {"class_name": "Add", "config": {"name": "add_8", "trainable": true, "dtype": "float32"}, "name": "add_8", "inbound_nodes": [[["activation_10", 0, 0, {}], ["activation_8", 0, 0, {}]]]}, {"class_name": "Conv2D", "config": {"name": "conv2d_13", "trainable": true, "dtype": "float32", "filters": 32, "kernel_size": [3, 3], "strides": [1, 1], "padding": "same", "data_format": "channels_last", "dilation_rate": [1, 1], "groups": 1, "activation": "linear", "use_bias": true, "kernel_initializer": {"class_name": "GlorotUniform", "config": {"seed": null}}, "bias_initializer": {"class_name": "Zeros", "config": {}}, "kernel_regularizer": null, "bias_regularizer": null, "activity_regularizer": null, "kernel_constraint": null, "bias_constraint": null}, "name": "conv2d_13", "inbound_nodes": [[["add_8", 0, 0, {}]]]}, {"class_name": "Activation", "config": {"name": "activation_11", "trainable": true, "dtype": "float32", "activation": "relu"}, "name": "activation_11", "inbound_nodes": [[["conv2d_13", 0, 0, {}]]]}, {"class_name": "Add", "config": {"name": "add_9", "trainable": true, "dtype": "float32"}, "name": "add_9", "inbound_nodes": [[["activation_11", 0, 0, {}], ["conv2d_7", 0, 0, {}]]]}, {"class_name": "MaxPooling2D", "config": {"name": "max_pooling2d_1", "trainable": true, "dtype": "float32", "pool_size": [2, 2], "padding": "valid", "strides": [2, 2], "data_format": "channels_last"}, "name": "max_pooling2d_1", "inbound_nodes": [[["add_9", 0, 0, {}]]]}, {"class_name": "Conv2D", "config": {"name": "conv2d_14", "trainable": true, "dtype": "float32", "filters": 64, "kernel_size": [1, 1], "strides": [1, 1], "padding": "same", "data_format": "channels_last", "dilation_rate": [1, 1], "groups": 1, "activation": "linear", "use_bias": true, "kernel_initializer": {"class_name": "GlorotUniform", "config": {"seed": null}}, "bias_initializer": {"class_name": "Zeros", "config": {}}, "kernel_regularizer": null, "bias_regularizer": null, "activity_regularizer": null, "kernel_constraint": null, "bias_constraint": null}, "name": "conv2d_14", "inbound_nodes": [[["max_pooling2d_1", 0, 0, {}]]]}, {"class_name": "Conv2D", "config": {"name": "conv2d_15", "trainable": true, "dtype": "float32", "filters": 64, "kernel_size": [3, 3], "strides": [1, 1], "padding": "same", "data_format": "channels_last", "dilation_rate": [1, 1], "groups": 1, "activation": "linear", "use_bias": true, "kernel_initializer": {"class_name": "GlorotUniform", "config": {"seed": null}}, "bias_initializer": {"class_name": "Zeros", "config": {}}, "kernel_regularizer": null, "bias_regularizer": null, "activity_regularizer": null, "kernel_constraint": null, "bias_constraint": null}, "name": "conv2d_15", "inbound_nodes": [[["conv2d_14", 0, 0, {}]]]}, {"class_name": "MCDropout", "config": {"name": "mc_dropout_4", "trainable": true, "dtype": "float32", "rate": 0.2, "noise_shape": null, "seed": null}, "name": "mc_dropout_4", "inbound_nodes": [[["conv2d_15", 0, 0, {}]]]}, {"class_name": "Activation", "config": {"name": "activation_12", "trainable": true, "dtype": "float32", "activation": "relu"}, "name": "activation_12", "inbound_nodes": [[["mc_dropout_4", 0, 0, {}]]]}, {"class_name": "Add", "config": {"name": "add_10", "trainable": true, "dtype": "float32"}, "name": "add_10", "inbound_nodes": [[["activation_12", 0, 0, {}], ["conv2d_14", 0, 0, {}]]]}, {"class_name": "Conv2D", "config": {"name": "conv2d_16", "trainable": true, "dtype": "float32", "filters": 64, "kernel_size": [3, 3], "strides": [1, 1], "padding": "same", "data_format": "channels_last", "dilation_rate": [1, 1], "groups": 1, "activation": "linear", "use_bias": true, "kernel_initializer": {"class_name": "GlorotUniform", "config": {"seed": null}}, "bias_initializer": {"class_name": "Zeros", "config": {}}, "kernel_regularizer": null, "bias_regularizer": null, "activity_regularizer": null, "kernel_constraint": null, "bias_constraint": null}, "name": "conv2d_16", "inbound_nodes": [[["add_10", 0, 0, {}]]]}, {"class_name": "Activation", "config": {"name": "activation_13", "trainable": true, "dtype": "float32", "activation": "relu"}, "name": "activation_13", "inbound_nodes": [[["conv2d_16", 0, 0, {}]]]}, {"class_name": "Add", "config": {"name": "add_11", "trainable": true, "dtype": "float32"}, "name": "add_11", "inbound_nodes": [[["activation_13", 0, 0, {}], ["conv2d_14", 0, 0, {}]]]}, {"class_name": "Conv2D", "config": {"name": "conv2d_17", "trainable": true, "dtype": "float32", "filters": 64, "kernel_size": [3, 3], "strides": [1, 1], "padding": "same", "data_format": "channels_last", "dilation_rate": [1, 1], "groups": 1, "activation": "linear", "use_bias": true, "kernel_initializer": {"class_name": "GlorotUniform", "config": {"seed": null}}, "bias_initializer": {"class_name": "Zeros", "config": {}}, "kernel_regularizer": null, "bias_regularizer": null, "activity_regularizer": null, "kernel_constraint": null, "bias_constraint": null}, "name": "conv2d_17", "inbound_nodes": [[["add_11", 0, 0, {}]]]}, {"class_name": "Activation", "config": {"name": "activation_14", "trainable": true, "dtype": "float32", "activation": "relu"}, "name": "activation_14", "inbound_nodes": [[["conv2d_17", 0, 0, {}]]]}, {"class_name": "Conv2D", "config": {"name": "conv2d_18", "trainable": true, "dtype": "float32", "filters": 64, "kernel_size": [3, 3], "strides": [1, 1], "padding": "same", "data_format": "channels_last", "dilation_rate": [1, 1], "groups": 1, "activation": "linear", "use_bias": true, "kernel_initializer": {"class_name": "GlorotUniform", "config": {"seed": null}}, "bias_initializer": {"class_name": "Zeros", "config": {}}, "kernel_regularizer": null, "bias_regularizer": null, "activity_regularizer": null, "kernel_constraint": null, "bias_constraint": null}, "name": "conv2d_18", "inbound_nodes": [[["activation_14", 0, 0, {}]]]}, {"class_name": "MCDropout", "config": {"name": "mc_dropout_5", "trainable": true, "dtype": "float32", "rate": 0.2, "noise_shape": null, "seed": null}, "name": "mc_dropout_5", "inbound_nodes": [[["conv2d_18", 0, 0, {}]]]}, {"class_name": "Activation", "config": {"name": "activation_15", "trainable": true, "dtype": "float32", "activation": "relu"}, "name": "activation_15", "inbound_nodes": [[["mc_dropout_5", 0, 0, {}]]]}, {"class_name": "Add", "config": {"name": "add_12", "trainable": true, "dtype": "float32"}, "name": "add_12", "inbound_nodes": [[["activation_15", 0, 0, {}], ["activation_14", 0, 0, {}]]]}, {"class_name": "Conv2D", "config": {"name": "conv2d_19", "trainable": true, "dtype": "float32", "filters": 64, "kernel_size": [3, 3], "strides": [1, 1], "padding": "same", "data_format": "channels_last", "dilation_rate": [1, 1], "groups": 1, "activation": "linear", "use_bias": true, "kernel_initializer": {"class_name": "GlorotUniform", "config": {"seed": null}}, "bias_initializer": {"class_name": "Zeros", "config": {}}, "kernel_regularizer": null, "bias_regularizer": null, "activity_regularizer": null, "kernel_constraint": null, "bias_constraint": null}, "name": "conv2d_19", "inbound_nodes": [[["add_12", 0, 0, {}]]]}, {"class_name": "Activation", "config": {"name": "activation_16", "trainable": true, "dtype": "float32", "activation": "relu"}, "name": "activation_16", "inbound_nodes": [[["conv2d_19", 0, 0, {}]]]}, {"class_name": "Add", "config": {"name": "add_13", "trainable": true, "dtype": "float32"}, "name": "add_13", "inbound_nodes": [[["activation_16", 0, 0, {}], ["activation_14", 0, 0, {}]]]}, {"class_name": "Conv2D", "config": {"name": "conv2d_20", "trainable": true, "dtype": "float32", "filters": 64, "kernel_size": [3, 3], "strides": [1, 1], "padding": "same", "data_format": "channels_last", "dilation_rate": [1, 1], "groups": 1, "activation": "linear", "use_bias": true, "kernel_initializer": {"class_name": "GlorotUniform", "config": {"seed": null}}, "bias_initializer": {"class_name": "Zeros", "config": {}}, "kernel_regularizer": null, "bias_regularizer": null, "activity_regularizer": null, "kernel_constraint": null, "bias_constraint": null}, "name": "conv2d_20", "inbound_nodes": [[["add_13", 0, 0, {}]]]}, {"class_name": "Activation", "config": {"name": "activation_17", "trainable": true, "dtype": "float32", "activation": "relu"}, "name": "activation_17", "inbound_nodes": [[["conv2d_20", 0, 0, {}]]]}, {"class_name": "Add", "config": {"name": "add_14", "trainable": true, "dtype": "float32"}, "name": "add_14", "inbound_nodes": [[["activation_17", 0, 0, {}], ["conv2d_14", 0, 0, {}]]]}, {"class_name": "MaxPooling2D", "config": {"name": "max_pooling2d_2", "trainable": true, "dtype": "float32", "pool_size": [2, 2], "padding": "valid", "strides": [2, 2], "data_format": "channels_last"}, "name": "max_pooling2d_2", "inbound_nodes": [[["add_14", 0, 0, {}]]]}, {"class_name": "Conv2D", "config": {"name": "conv2d_21", "trainable": true, "dtype": "float32", "filters": 128, "kernel_size": [1, 1], "strides": [1, 1], "padding": "same", "data_format": "channels_last", "dilation_rate": [1, 1], "groups": 1, "activation": "linear", "use_bias": true, "kernel_initializer": {"class_name": "GlorotUniform", "config": {"seed": null}}, "bias_initializer": {"class_name": "Zeros", "config": {}}, "kernel_regularizer": null, "bias_regularizer": null, "activity_regularizer": null, "kernel_constraint": null, "bias_constraint": null}, "name": "conv2d_21", "inbound_nodes": [[["max_pooling2d_2", 0, 0, {}]]]}, {"class_name": "Conv2D", "config": {"name": "conv2d_22", "trainable": true, "dtype": "float32", "filters": 128, "kernel_size": [3, 3], "strides": [1, 1], "padding": "same", "data_format": "channels_last", "dilation_rate": [1, 1], "groups": 1, "activation": "linear", "use_bias": true, "kernel_initializer": {"class_name": "GlorotUniform", "config": {"seed": null}}, "bias_initializer": {"class_name": "Zeros", "config": {}}, "kernel_regularizer": null, "bias_regularizer": null, "activity_regularizer": null, "kernel_constraint": null, "bias_constraint": null}, "name": "conv2d_22", "inbound_nodes": [[["conv2d_21", 0, 0, {}]]]}, {"class_name": "MCDropout", "config": {"name": "mc_dropout_6", "trainable": true, "dtype": "float32", "rate": 0.2, "noise_shape": null, "seed": null}, "name": "mc_dropout_6", "inbound_nodes": [[["conv2d_22", 0, 0, {}]]]}, {"class_name": "Activation", "config": {"name": "activation_18", "trainable": true, "dtype": "float32", "activation": "relu"}, "name": "activation_18", "inbound_nodes": [[["mc_dropout_6", 0, 0, {}]]]}, {"class_name": "Add", "config": {"name": "add_15", "trainable": true, "dtype": "float32"}, "name": "add_15", "inbound_nodes": [[["activation_18", 0, 0, {}], ["conv2d_21", 0, 0, {}]]]}, {"class_name": "Conv2D", "config": {"name": "conv2d_23", "trainable": true, "dtype": "float32", "filters": 128, "kernel_size": [3, 3], "strides": [1, 1], "padding": "same", "data_format": "channels_last", "dilation_rate": [1, 1], "groups": 1, "activation": "linear", "use_bias": true, "kernel_initializer": {"class_name": "GlorotUniform", "config": {"seed": null}}, "bias_initializer": {"class_name": "Zeros", "config": {}}, "kernel_regularizer": null, "bias_regularizer": null, "activity_regularizer": null, "kernel_constraint": null, "bias_constraint": null}, "name": "conv2d_23", "inbound_nodes": [[["add_15", 0, 0, {}]]]}, {"class_name": "Activation", "config": {"name": "activation_19", "trainable": true, "dtype": "float32", "activation": "relu"}, "name": "activation_19", "inbound_nodes": [[["conv2d_23", 0, 0, {}]]]}, {"class_name": "Add", "config": {"name": "add_16", "trainable": true, "dtype": "float32"}, "name": "add_16", "inbound_nodes": [[["activation_19", 0, 0, {}], ["conv2d_21", 0, 0, {}]]]}, {"class_name": "Conv2D", "config": {"name": "conv2d_24", "trainable": true, "dtype": "float32", "filters": 128, "kernel_size": [3, 3], "strides": [1, 1], "padding": "same", "data_format": "channels_last", "dilation_rate": [1, 1], "groups": 1, "activation": "linear", "use_bias": true, "kernel_initializer": {"class_name": "GlorotUniform", "config": {"seed": null}}, "bias_initializer": {"class_name": "Zeros", "config": {}}, "kernel_regularizer": null, "bias_regularizer": null, "activity_regularizer": null, "kernel_constraint": null, "bias_constraint": null}, "name": "conv2d_24", "inbound_nodes": [[["add_16", 0, 0, {}]]]}, {"class_name": "Activation", "config": {"name": "activation_20", "trainable": true, "dtype": "float32", "activation": "relu"}, "name": "activation_20", "inbound_nodes": [[["conv2d_24", 0, 0, {}]]]}, {"class_name": "Conv2D", "config": {"name": "conv2d_25", "trainable": true, "dtype": "float32", "filters": 128, "kernel_size": [3, 3], "strides": [1, 1], "padding": "same", "data_format": "channels_last", "dilation_rate": [1, 1], "groups": 1, "activation": "linear", "use_bias": true, "kernel_initializer": {"class_name": "GlorotUniform", "config": {"seed": null}}, "bias_initializer": {"class_name": "Zeros", "config": {}}, "kernel_regularizer": null, "bias_regularizer": null, "activity_regularizer": null, "kernel_constraint": null, "bias_constraint": null}, "name": "conv2d_25", "inbound_nodes": [[["activation_20", 0, 0, {}]]]}, {"class_name": "MCDropout", "config": {"name": "mc_dropout_7", "trainable": true, "dtype": "float32", "rate": 0.2, "noise_shape": null, "seed": null}, "name": "mc_dropout_7", "inbound_nodes": [[["conv2d_25", 0, 0, {}]]]}, {"class_name": "Activation", "config": {"name": "activation_21", "trainable": true, "dtype": "float32", "activation": "relu"}, "name": "activation_21", "inbound_nodes": [[["mc_dropout_7", 0, 0, {}]]]}, {"class_name": "Add", "config": {"name": "add_17", "trainable": true, "dtype": "float32"}, "name": "add_17", "inbound_nodes": [[["activation_21", 0, 0, {}], ["activation_20", 0, 0, {}]]]}, {"class_name": "Conv2D", "config": {"name": "conv2d_26", "trainable": true, "dtype": "float32", "filters": 128, "kernel_size": [3, 3], "strides": [1, 1], "padding": "same", "data_format": "channels_last", "dilation_rate": [1, 1], "groups": 1, "activation": "linear", "use_bias": true, "kernel_initializer": {"class_name": "GlorotUniform", "config": {"seed": null}}, "bias_initializer": {"class_name": "Zeros", "config": {}}, "kernel_regularizer": null, "bias_regularizer": null, "activity_regularizer": null, "kernel_constraint": null, "bias_constraint": null}, "name": "conv2d_26", "inbound_nodes": [[["add_17", 0, 0, {}]]]}, {"class_name": "Activation", "config": {"name": "activation_22", "trainable": true, "dtype": "float32", "activation": "relu"}, "name": "activation_22", "inbound_nodes": [[["conv2d_26", 0, 0, {}]]]}, {"class_name": "Add", "config": {"name": "add_18", "trainable": true, "dtype": "float32"}, "name": "add_18", "inbound_nodes": [[["activation_22", 0, 0, {}], ["activation_20", 0, 0, {}]]]}, {"class_name": "Conv2D", "config": {"name": "conv2d_27", "trainable": true, "dtype": "float32", "filters": 128, "kernel_size": [3, 3], "strides": [1, 1], "padding": "same", "data_format": "channels_last", "dilation_rate": [1, 1], "groups": 1, "activation": "linear", "use_bias": true, "kernel_initializer": {"class_name": "GlorotUniform", "config": {"seed": null}}, "bias_initializer": {"class_name": "Zeros", "config": {}}, "kernel_regularizer": null, "bias_regularizer": null, "activity_regularizer": null, "kernel_constraint": null, "bias_constraint": null}, "name": "conv2d_27", "inbound_nodes": [[["add_18", 0, 0, {}]]]}, {"class_name": "Activation", "config": {"name": "activation_23", "trainable": true, "dtype": "float32", "activation": "relu"}, "name": "activation_23", "inbound_nodes": [[["conv2d_27", 0, 0, {}]]]}, {"class_name": "Add", "config": {"name": "add_19", "trainable": true, "dtype": "float32"}, "name": "add_19", "inbound_nodes": [[["activation_23", 0, 0, {}], ["conv2d_21", 0, 0, {}]]]}, {"class_name": "MaxPooling2D", "config": {"name": "max_pooling2d_3", "trainable": true, "dtype": "float32", "pool_size": [2, 2], "padding": "valid", "strides": [2, 2], "data_format": "channels_last"}, "name": "max_pooling2d_3", "inbound_nodes": [[["add_19", 0, 0, {}]]]}, {"class_name": "Conv2D", "config": {"name": "conv2d_28", "trainable": true, "dtype": "float32", "filters": 256, "kernel_size": [1, 1], "strides": [1, 1], "padding": "same", "data_format": "channels_last", "dilation_rate": [1, 1], "groups": 1, "activation": "linear", "use_bias": true, "kernel_initializer": {"class_name": "GlorotUniform", "config": {"seed": null}}, "bias_initializer": {"class_name": "Zeros", "config": {}}, "kernel_regularizer": null, "bias_regularizer": null, "activity_regularizer": null, "kernel_constraint": null, "bias_constraint": null}, "name": "conv2d_28", "inbound_nodes": [[["max_pooling2d_3", 0, 0, {}]]]}, {"class_name": "Conv2D", "config": {"name": "conv2d_29", "trainable": true, "dtype": "float32", "filters": 256, "kernel_size": [3, 3], "strides": [1, 1], "padding": "same", "data_format": "channels_last", "dilation_rate": [1, 1], "groups": 1, "activation": "linear", "use_bias": true, "kernel_initializer": {"class_name": "GlorotUniform", "config": {"seed": null}}, "bias_initializer": {"class_name": "Zeros", "config": {}}, "kernel_regularizer": null, "bias_regularizer": null, "activity_regularizer": null, "kernel_constraint": null, "bias_constraint": null}, "name": "conv2d_29", "inbound_nodes": [[["conv2d_28", 0, 0, {}]]]}, {"class_name": "MCDropout", "config": {"name": "mc_dropout_8", "trainable": true, "dtype": "float32", "rate": 0.2, "noise_shape": null, "seed": null}, "name": "mc_dropout_8", "inbound_nodes": [[["conv2d_29", 0, 0, {}]]]}, {"class_name": "Activation", "config": {"name": "activation_24", "trainable": true, "dtype": "float32", "activation": "relu"}, "name": "activation_24", "inbound_nodes": [[["mc_dropout_8", 0, 0, {}]]]}, {"class_name": "Add", "config": {"name": "add_20", "trainable": true, "dtype": "float32"}, "name": "add_20", "inbound_nodes": [[["activation_24", 0, 0, {}], ["conv2d_28", 0, 0, {}]]]}, {"class_name": "Conv2D", "config": {"name": "conv2d_30", "trainable": true, "dtype": "float32", "filters": 256, "kernel_size": [3, 3], "strides": [1, 1], "padding": "same", "data_format": "channels_last", "dilation_rate": [1, 1], "groups": 1, "activation": "linear", "use_bias": true, "kernel_initializer": {"class_name": "GlorotUniform", "config": {"seed": null}}, "bias_initializer": {"class_name": "Zeros", "config": {}}, "kernel_regularizer": null, "bias_regularizer": null, "activity_regularizer": null, "kernel_constraint": null, "bias_constraint": null}, "name": "conv2d_30", "inbound_nodes": [[["add_20", 0, 0, {}]]]}, {"class_name": "Activation", "config": {"name": "activation_25", "trainable": true, "dtype": "float32", "activation": "relu"}, "name": "activation_25", "inbound_nodes": [[["conv2d_30", 0, 0, {}]]]}, {"class_name": "Add", "config": {"name": "add_21", "trainable": true, "dtype": "float32"}, "name": "add_21", "inbound_nodes": [[["activation_25", 0, 0, {}], ["conv2d_28", 0, 0, {}]]]}, {"class_name": "Conv2D", "config": {"name": "conv2d_31", "trainable": true, "dtype": "float32", "filters": 256, "kernel_size": [3, 3], "strides": [1, 1], "padding": "same", "data_format": "channels_last", "dilation_rate": [1, 1], "groups": 1, "activation": "linear", "use_bias": true, "kernel_initializer": {"class_name": "GlorotUniform", "config": {"seed": null}}, "bias_initializer": {"class_name": "Zeros", "config": {}}, "kernel_regularizer": null, "bias_regularizer": null, "activity_regularizer": null, "kernel_constraint": null, "bias_constraint": null}, "name": "conv2d_31", "inbound_nodes": [[["add_21", 0, 0, {}]]]}, {"class_name": "Activation", "config": {"name": "activation_26", "trainable": true, "dtype": "float32", "activation": "relu"}, "name": "activation_26", "inbound_nodes": [[["conv2d_31", 0, 0, {}]]]}, {"class_name": "Conv2D", "config": {"name": "conv2d_32", "trainable": true, "dtype": "float32", "filters": 256, "kernel_size": [3, 3], "strides": [1, 1], "padding": "same", "data_format": "channels_last", "dilation_rate": [1, 1], "groups": 1, "activation": "linear", "use_bias": true, "kernel_initializer": {"class_name": "GlorotUniform", "config": {"seed": null}}, "bias_initializer": {"class_name": "Zeros", "config": {}}, "kernel_regularizer": null, "bias_regularizer": null, "activity_regularizer": null, "kernel_constraint": null, "bias_constraint": null}, "name": "conv2d_32", "inbound_nodes": [[["activation_26", 0, 0, {}]]]}, {"class_name": "MCDropout", "config": {"name": "mc_dropout_9", "trainable": true, "dtype": "float32", "rate": 0.2, "noise_shape": null, "seed": null}, "name": "mc_dropout_9", "inbound_nodes": [[["conv2d_32", 0, 0, {}]]]}, {"class_name": "Activation", "config": {"name": "activation_27", "trainable": true, "dtype": "float32", "activation": "relu"}, "name": "activation_27", "inbound_nodes": [[["mc_dropout_9", 0, 0, {}]]]}, {"class_name": "Add", "config": {"name": "add_22", "trainable": true, "dtype": "float32"}, "name": "add_22", "inbound_nodes": [[["activation_27", 0, 0, {}], ["activation_26", 0, 0, {}]]]}, {"class_name": "Conv2D", "config": {"name": "conv2d_33", "trainable": true, "dtype": "float32", "filters": 256, "kernel_size": [3, 3], "strides": [1, 1], "padding": "same", "data_format": "channels_last", "dilation_rate": [1, 1], "groups": 1, "activation": "linear", "use_bias": true, "kernel_initializer": {"class_name": "GlorotUniform", "config": {"seed": null}}, "bias_initializer": {"class_name": "Zeros", "config": {}}, "kernel_regularizer": null, "bias_regularizer": null, "activity_regularizer": null, "kernel_constraint": null, "bias_constraint": null}, "name": "conv2d_33", "inbound_nodes": [[["add_22", 0, 0, {}]]]}, {"class_name": "Activation", "config": {"name": "activation_28", "trainable": true, "dtype": "float32", "activation": "relu"}, "name": "activation_28", "inbound_nodes": [[["conv2d_33", 0, 0, {}]]]}, {"class_name": "Add", "config": {"name": "add_23", "trainable": true, "dtype": "float32"}, "name": "add_23", "inbound_nodes": [[["activation_28", 0, 0, {}], ["activation_26", 0, 0, {}]]]}, {"class_name": "Conv2D", "config": {"name": "conv2d_34", "trainable": true, "dtype": "float32", "filters": 256, "kernel_size": [3, 3], "strides": [1, 1], "padding": "same", "data_format": "channels_last", "dilation_rate": [1, 1], "groups": 1, "activation": "linear", "use_bias": true, "kernel_initializer": {"class_name": "GlorotUniform", "config": {"seed": null}}, "bias_initializer": {"class_name": "Zeros", "config": {}}, "kernel_regularizer": null, "bias_regularizer": null, "activity_regularizer": null, "kernel_constraint": null, "bias_constraint": null}, "name": "conv2d_34", "inbound_nodes": [[["add_23", 0, 0, {}]]]}, {"class_name": "Activation", "config": {"name": "activation_29", "trainable": true, "dtype": "float32", "activation": "relu"}, "name": "activation_29", "inbound_nodes": [[["conv2d_34", 0, 0, {}]]]}, {"class_name": "Add", "config": {"name": "add_24", "trainable": true, "dtype": "float32"}, "name": "add_24", "inbound_nodes": [[["activation_29", 0, 0, {}], ["conv2d_28", 0, 0, {}]]]}, {"class_name": "UpSampling2D", "config": {"name": "up_sampling2d", "trainable": true, "dtype": "float32", "size": [2, 2], "data_format": "channels_last", "interpolation": "nearest"}, "name": "up_sampling2d", "inbound_nodes": [[["add_24", 0, 0, {}]]]}, {"class_name": "Conv2D", "config": {"name": "conv2d_35", "trainable": true, "dtype": "float32", "filters": 64, "kernel_size": [1, 1], "strides": [1, 1], "padding": "valid", "data_format": "channels_last", "dilation_rate": [1, 1], "groups": 1, "activation": "linear", "use_bias": true, "kernel_initializer": {"class_name": "GlorotUniform", "config": {"seed": null}}, "bias_initializer": {"class_name": "Zeros", "config": {}}, "kernel_regularizer": null, "bias_regularizer": null, "activity_regularizer": null, "kernel_constraint": null, "bias_constraint": null}, "name": "conv2d_35", "inbound_nodes": [[["add_19", 0, 0, {}]]]}, {"class_name": "Conv2D", "config": {"name": "conv2d_36", "trainable": true, "dtype": "float32", "filters": 64, "kernel_size": [1, 1], "strides": [1, 1], "padding": "valid", "data_format": "channels_last", "dilation_rate": [1, 1], "groups": 1, "activation": "linear", "use_bias": true, "kernel_initializer": {"class_name": "GlorotUniform", "config": {"seed": null}}, "bias_initializer": {"class_name": "Zeros", "config": {}}, "kernel_regularizer": null, "bias_regularizer": null, "activity_regularizer": null, "kernel_constraint": null, "bias_constraint": null}, "name": "conv2d_36", "inbound_nodes": [[["up_sampling2d", 0, 0, {}]]]}, {"class_name": "Add", "config": {"name": "add_25", "trainable": true, "dtype": "float32"}, "name": "add_25", "inbound_nodes": [[["conv2d_35", 0, 0, {}], ["conv2d_36", 0, 0, {}]]]}, {"class_name": "Activation", "config": {"name": "activation_30", "trainable": true, "dtype": "float32", "activation": "relu"}, "name": "activation_30", "inbound_nodes": [[["add_25", 0, 0, {}]]]}, {"class_name": "Conv2D", "config": {"name": "conv2d_37", "trainable": true, "dtype": "float32", "filters": 1, "kernel_size": [1, 1], "strides": [1, 1], "padding": "valid", "data_format": "channels_last", "dilation_rate": [1, 1], "groups": 1, "activation": "linear", "use_bias": true, "kernel_initializer": {"class_name": "GlorotUniform", "config": {"seed": null}}, "bias_initializer": {"class_name": "Zeros", "config": {}}, "kernel_regularizer": null, "bias_regularizer": null, "activity_regularizer": null, "kernel_constraint": null, "bias_constraint": null}, "name": "conv2d_37", "inbound_nodes": [[["activation_30", 0, 0, {}]]]}, {"class_name": "Activation", "config": {"name": "activation_31", "trainable": true, "dtype": "float32", "activation": "sigmoid"}, "name": "activation_31", "inbound_nodes": [[["conv2d_37", 0, 0, {}]]]}, {"class_name": "Multiply", "config": {"name": "multiply", "trainable": true, "dtype": "float32"}, "name": "multiply", "inbound_nodes": [[["add_19", 0, 0, {}], ["activation_31", 0, 0, {}]]]}, {"class_name": "Lambda", "config": {"name": "lambda", "trainable": true, "dtype": "float32", "function": ["4wEAAAAAAAAAAAAAAAEAAAAEAAAAUwAAAHMaAAAAdABqAXwAZAEZAHwAZAIZAGcCZANkBI0CUwCp\nBU7pAAAAAOkBAAAA6QMAAACpAdoEYXhpc6kC2gFL2gtjb25jYXRlbmF0ZakB2gF4qQByDAAAAPov\nL3Jvb3QvRGF0YXNldF9wY2EvZHBfbW9kZWxzL2F0dG5fbXVsdGlfbW9kZWwucHnaCDxsYW1iZGE+\nLgAAAPMAAAAA\n", null, null], "function_type": "lambda", "module": "dp_models.attn_multi_model", "output_shape": null, "output_shape_type": "raw", "output_shape_module": null, "arguments": {}}, "name": "lambda", "inbound_nodes": [[["up_sampling2d", 0, 0, {}], ["multiply", 0, 0, {}]]]}, {"class_name": "Conv2D", "config": {"name": "conv2d_38", "trainable": true, "dtype": "float32", "filters": 128, "kernel_size": [1, 1], "strides": [1, 1], "padding": "same", "data_format": "channels_last", "dilation_rate": [1, 1], "groups": 1, "activation": "linear", "use_bias": true, "kernel_initializer": {"class_name": "GlorotUniform", "config": {"seed": null}}, "bias_initializer": {"class_name": "Zeros", "config": {}}, "kernel_regularizer": null, "bias_regularizer": null, "activity_regularizer": null, "kernel_constraint": null, "bias_constraint": null}, "name": "conv2d_38", "inbound_nodes": [[["lambda", 0, 0, {}]]]}, {"class_name": "Conv2D", "config": {"name": "conv2d_39", "trainable": true, "dtype": "float32", "filters": 128, "kernel_size": [3, 3], "strides": [1, 1], "padding": "same", "data_format": "channels_last", "dilation_rate": [1, 1], "groups": 1, "activation": "linear", "use_bias": true, "kernel_initializer": {"class_name": "GlorotUniform", "config": {"seed": null}}, "bias_initializer": {"class_name": "Zeros", "config": {}}, "kernel_regularizer": null, "bias_regularizer": null, "activity_regularizer": null, "kernel_constraint": null, "bias_constraint": null}, "name": "conv2d_39", "inbound_nodes": [[["conv2d_38", 0, 0, {}]]]}, {"class_name": "MCDropout", "config": {"name": "mc_dropout_10", "trainable": true, "dtype": "float32", "rate": 0.2, "noise_shape": null, "seed": null}, "name": "mc_dropout_10", "inbound_nodes": [[["conv2d_39", 0, 0, {}]]]}, {"class_name": "Activation", "config": {"name": "activation_32", "trainable": true, "dtype": "float32", "activation": "relu"}, "name": "activation_32", "inbound_nodes": [[["mc_dropout_10", 0, 0, {}]]]}, {"class_name": "Add", "config": {"name": "add_26", "trainable": true, "dtype": "float32"}, "name": "add_26", "inbound_nodes": [[["activation_32", 0, 0, {}], ["conv2d_38", 0, 0, {}]]]}, {"class_name": "Conv2D", "config": {"name": "conv2d_40", "trainable": true, "dtype": "float32", "filters": 128, "kernel_size": [3, 3], "strides": [1, 1], "padding": "same", "data_format": "channels_last", "dilation_rate": [1, 1], "groups": 1, "activation": "linear", "use_bias": true, "kernel_initializer": {"class_name": "GlorotUniform", "config": {"seed": null}}, "bias_initializer": {"class_name": "Zeros", "config": {}}, "kernel_regularizer": null, "bias_regularizer": null, "activity_regularizer": null, "kernel_constraint": null, "bias_constraint": null}, "name": "conv2d_40", "inbound_nodes": [[["add_26", 0, 0, {}]]]}, {"class_name": "Activation", "config": {"name": "activation_33", "trainable": true, "dtype": "float32", "activation": "relu"}, "name": "activation_33", "inbound_nodes": [[["conv2d_40", 0, 0, {}]]]}, {"class_name": "Add", "config": {"name": "add_27", "trainable": true, "dtype": "float32"}, "name": "add_27", "inbound_nodes": [[["activation_33", 0, 0, {}], ["conv2d_38", 0, 0, {}]]]}, {"class_name": "Conv2D", "config": {"name": "conv2d_41", "trainable": true, "dtype": "float32", "filters": 128, "kernel_size": [3, 3], "strides": [1, 1], "padding": "same", "data_format": "channels_last", "dilation_rate": [1, 1], "groups": 1, "activation": "linear", "use_bias": true, "kernel_initializer": {"class_name": "GlorotUniform", "config": {"seed": null}}, "bias_initializer": {"class_name": "Zeros", "config": {}}, "kernel_regularizer": null, "bias_regularizer": null, "activity_regularizer": null, "kernel_constraint": null, "bias_constraint": null}, "name": "conv2d_41", "inbound_nodes": [[["add_27", 0, 0, {}]]]}, {"class_name": "Activation", "config": {"name": "activation_34", "trainable": true, "dtype": "float32", "activation": "relu"}, "name": "activation_34", "inbound_nodes": [[["conv2d_41", 0, 0, {}]]]}, {"class_name": "Conv2D", "config": {"name": "conv2d_42", "trainable": true, "dtype": "float32", "filters": 128, "kernel_size": [3, 3], "strides": [1, 1], "padding": "same", "data_format": "channels_last", "dilation_rate": [1, 1], "groups": 1, "activation": "linear", "use_bias": true, "kernel_initializer": {"class_name": "GlorotUniform", "config": {"seed": null}}, "bias_initializer": {"class_name": "Zeros", "config": {}}, "kernel_regularizer": null, "bias_regularizer": null, "activity_regularizer": null, "kernel_constraint": null, "bias_constraint": null}, "name": "conv2d_42", "inbound_nodes": [[["activation_34", 0, 0, {}]]]}, {"class_name": "MCDropout", "config": {"name": "mc_dropout_11", "trainable": true, "dtype": "float32", "rate": 0.2, "noise_shape": null, "seed": null}, "name": "mc_dropout_11", "inbound_nodes": [[["conv2d_42", 0, 0, {}]]]}, {"class_name": "Activation", "config": {"name": "activation_35", "trainable": true, "dtype": "float32", "activation": "relu"}, "name": "activation_35", "inbound_nodes": [[["mc_dropout_11", 0, 0, {}]]]}, {"class_name": "Add", "config": {"name": "add_28", "trainable": true, "dtype": "float32"}, "name": "add_28", "inbound_nodes": [[["activation_35", 0, 0, {}], ["activation_34", 0, 0, {}]]]}, {"class_name": "Conv2D", "config": {"name": "conv2d_43", "trainable": true, "dtype": "float32", "filters": 128, "kernel_size": [3, 3], "strides": [1, 1], "padding": "same", "data_format": "channels_last", "dilation_rate": [1, 1], "groups": 1, "activation": "linear", "use_bias": true, "kernel_initializer": {"class_name": "GlorotUniform", "config": {"seed": null}}, "bias_initializer": {"class_name": "Zeros", "config": {}}, "kernel_regularizer": null, "bias_regularizer": null, "activity_regularizer": null, "kernel_constraint": null, "bias_constraint": null}, "name": "conv2d_43", "inbound_nodes": [[["add_28", 0, 0, {}]]]}, {"class_name": "Activation", "config": {"name": "activation_36", "trainable": true, "dtype": "float32", "activation": "relu"}, "name": "activation_36", "inbound_nodes": [[["conv2d_43", 0, 0, {}]]]}, {"class_name": "Add", "config": {"name": "add_29", "trainable": true, "dtype": "float32"}, "name": "add_29", "inbound_nodes": [[["activation_36", 0, 0, {}], ["activation_34", 0, 0, {}]]]}, {"class_name": "Conv2D", "config": {"name": "conv2d_44", "trainable": true, "dtype": "float32", "filters": 128, "kernel_size": [3, 3], "strides": [1, 1], "padding": "same", "data_format": "channels_last", "dilation_rate": [1, 1], "groups": 1, "activation": "linear", "use_bias": true, "kernel_initializer": {"class_name": "GlorotUniform", "config": {"seed": null}}, "bias_initializer": {"class_name": "Zeros", "config": {}}, "kernel_regularizer": null, "bias_regularizer": null, "activity_regularizer": null, "kernel_constraint": null, "bias_constraint": null}, "name": "conv2d_44", "inbound_nodes": [[["add_29", 0, 0, {}]]]}, {"class_name": "Activation", "config": {"name": "activation_37", "trainable": true, "dtype": "float32", "activation": "relu"}, "name": "activation_37", "inbound_nodes": [[["conv2d_44", 0, 0, {}]]]}, {"class_name": "Add", "config": {"name": "add_30", "trainable": true, "dtype": "float32"}, "name": "add_30", "inbound_nodes": [[["activation_37", 0, 0, {}], ["conv2d_38", 0, 0, {}]]]}, {"class_name": "UpSampling2D", "config": {"name": "up_sampling2d_1", "trainable": true, "dtype": "float32", "size": [2, 2], "data_format": "channels_last", "interpolation": "nearest"}, "name": "up_sampling2d_1", "inbound_nodes": [[["add_30", 0, 0, {}]]]}, {"class_name": "Conv2D", "config": {"name": "conv2d_45", "trainable": true, "dtype": "float32", "filters": 32, "kernel_size": [1, 1], "strides": [1, 1], "padding": "valid", "data_format": "channels_last", "dilation_rate": [1, 1], "groups": 1, "activation": "linear", "use_bias": true, "kernel_initializer": {"class_name": "GlorotUniform", "config": {"seed": null}}, "bias_initializer": {"class_name": "Zeros", "config": {}}, "kernel_regularizer": null, "bias_regularizer": null, "activity_regularizer": null, "kernel_constraint": null, "bias_constraint": null}, "name": "conv2d_45", "inbound_nodes": [[["add_14", 0, 0, {}]]]}, {"class_name": "Conv2D", "config": {"name": "conv2d_46", "trainable": true, "dtype": "float32", "filters": 32, "kernel_size": [1, 1], "strides": [1, 1], "padding": "valid", "data_format": "channels_last", "dilation_rate": [1, 1], "groups": 1, "activation": "linear", "use_bias": true, "kernel_initializer": {"class_name": "GlorotUniform", "config": {"seed": null}}, "bias_initializer": {"class_name": "Zeros", "config": {}}, "kernel_regularizer": null, "bias_regularizer": null, "activity_regularizer": null, "kernel_constraint": null, "bias_constraint": null}, "name": "conv2d_46", "inbound_nodes": [[["up_sampling2d_1", 0, 0, {}]]]}, {"class_name": "Add", "config": {"name": "add_31", "trainable": true, "dtype": "float32"}, "name": "add_31", "inbound_nodes": [[["conv2d_45", 0, 0, {}], ["conv2d_46", 0, 0, {}]]]}, {"class_name": "Activation", "config": {"name": "activation_38", "trainable": true, "dtype": "float32", "activation": "relu"}, "name": "activation_38", "inbound_nodes": [[["add_31", 0, 0, {}]]]}, {"class_name": "Conv2D", "config": {"name": "conv2d_47", "trainable": true, "dtype": "float32", "filters": 1, "kernel_size": [1, 1], "strides": [1, 1], "padding": "valid", "data_format": "channels_last", "dilation_rate": [1, 1], "groups": 1, "activation": "linear", "use_bias": true, "kernel_initializer": {"class_name": "GlorotUniform", "config": {"seed": null}}, "bias_initializer": {"class_name": "Zeros", "config": {}}, "kernel_regularizer": null, "bias_regularizer": null, "activity_regularizer": null, "kernel_constraint": null, "bias_constraint": null}, "name": "conv2d_47", "inbound_nodes": [[["activation_38", 0, 0, {}]]]}, {"class_name": "Activation", "config": {"name": "activation_39", "trainable": true, "dtype": "float32", "activation": "sigmoid"}, "name": "activation_39", "inbound_nodes": [[["conv2d_47", 0, 0, {}]]]}, {"class_name": "Multiply", "config": {"name": "multiply_1", "trainable": true, "dtype": "float32"}, "name": "multiply_1", "inbound_nodes": [[["add_14", 0, 0, {}], ["activation_39", 0, 0, {}]]]}, {"class_name": "Lambda", "config": {"name": "lambda_1", "trainable": true, "dtype": "float32", "function": ["4wEAAAAAAAAAAAAAAAEAAAAEAAAAUwAAAHMaAAAAdABqAXwAZAEZAHwAZAIZAGcCZANkBI0CUwCp\nBU7pAAAAAOkBAAAA6QMAAACpAdoEYXhpc6kC2gFL2gtjb25jYXRlbmF0ZakB2gF4qQByDAAAAPov\nL3Jvb3QvRGF0YXNldF9wY2EvZHBfbW9kZWxzL2F0dG5fbXVsdGlfbW9kZWwucHnaCDxsYW1iZGE+\nLgAAAPMAAAAA\n", null, null], "function_type": "lambda", "module": "dp_models.attn_multi_model", "output_shape": null, "output_shape_type": "raw", "output_shape_module": null, "arguments": {}}, "name": "lambda_1", "inbound_nodes": [[["up_sampling2d_1", 0, 0, {}], ["multiply_1", 0, 0, {}]]]}, {"class_name": "Conv2D", "config": {"name": "conv2d_48", "trainable": true, "dtype": "float32", "filters": 64, "kernel_size": [1, 1], "strides": [1, 1], "padding": "same", "data_format": "channels_last", "dilation_rate": [1, 1], "groups": 1, "activation": "linear", "use_bias": true, "kernel_initializer": {"class_name": "GlorotUniform", "config": {"seed": null}}, "bias_initializer": {"class_name": "Zeros", "config": {}}, "kernel_regularizer": null, "bias_regularizer": null, "activity_regularizer": null, "kernel_constraint": null, "bias_constraint": null}, "name": "conv2d_48", "inbound_nodes": [[["lambda_1", 0, 0, {}]]]}, {"class_name": "Conv2D", "config": {"name": "conv2d_49", "trainable": true, "dtype": "float32", "filters": 64, "kernel_size": [3, 3], "strides": [1, 1], "padding": "same", "data_format": "channels_last", "dilation_rate": [1, 1], "groups": 1, "activation": "linear", "use_bias": true, "kernel_initializer": {"class_name": "GlorotUniform", "config": {"seed": null}}, "bias_initializer": {"class_name": "Zeros", "config": {}}, "kernel_regularizer": null, "bias_regularizer": null, "activity_regularizer": null, "kernel_constraint": null, "bias_constraint": null}, "name": "conv2d_49", "inbound_nodes": [[["conv2d_48", 0, 0, {}]]]}, {"class_name": "MCDropout", "config": {"name": "mc_dropout_12", "trainable": true, "dtype": "float32", "rate": 0.2, "noise_shape": null, "seed": null}, "name": "mc_dropout_12", "inbound_nodes": [[["conv2d_49", 0, 0, {}]]]}, {"class_name": "Activation", "config": {"name": "activation_40", "trainable": true, "dtype": "float32", "activation": "relu"}, "name": "activation_40", "inbound_nodes": [[["mc_dropout_12", 0, 0, {}]]]}, {"class_name": "Add", "config": {"name": "add_32", "trainable": true, "dtype": "float32"}, "name": "add_32", "inbound_nodes": [[["activation_40", 0, 0, {}], ["conv2d_48", 0, 0, {}]]]}, {"class_name": "Conv2D", "config": {"name": "conv2d_50", "trainable": true, "dtype": "float32", "filters": 64, "kernel_size": [3, 3], "strides": [1, 1], "padding": "same", "data_format": "channels_last", "dilation_rate": [1, 1], "groups": 1, "activation": "linear", "use_bias": true, "kernel_initializer": {"class_name": "GlorotUniform", "config": {"seed": null}}, "bias_initializer": {"class_name": "Zeros", "config": {}}, "kernel_regularizer": null, "bias_regularizer": null, "activity_regularizer": null, "kernel_constraint": null, "bias_constraint": null}, "name": "conv2d_50", "inbound_nodes": [[["add_32", 0, 0, {}]]]}, {"class_name": "Activation", "config": {"name": "activation_41", "trainable": true, "dtype": "float32", "activation": "relu"}, "name": "activation_41", "inbound_nodes": [[["conv2d_50", 0, 0, {}]]]}, {"class_name": "Add", "config": {"name": "add_33", "trainable": true, "dtype": "float32"}, "name": "add_33", "inbound_nodes": [[["activation_41", 0, 0, {}], ["conv2d_48", 0, 0, {}]]]}, {"class_name": "Conv2D", "config": {"name": "conv2d_51", "trainable": true, "dtype": "float32", "filters": 64, "kernel_size": [3, 3], "strides": [1, 1], "padding": "same", "data_format": "channels_last", "dilation_rate": [1, 1], "groups": 1, "activation": "linear", "use_bias": true, "kernel_initializer": {"class_name": "GlorotUniform", "config": {"seed": null}}, "bias_initializer": {"class_name": "Zeros", "config": {}}, "kernel_regularizer": null, "bias_regularizer": null, "activity_regularizer": null, "kernel_constraint": null, "bias_constraint": null}, "name": "conv2d_51", "inbound_nodes": [[["add_33", 0, 0, {}]]]}, {"class_name": "Activation", "config": {"name": "activation_42", "trainable": true, "dtype": "float32", "activation": "relu"}, "name": "activation_42", "inbound_nodes": [[["conv2d_51", 0, 0, {}]]]}, {"class_name": "Conv2D", "config": {"name": "conv2d_52", "trainable": true, "dtype": "float32", "filters": 64, "kernel_size": [3, 3], "strides": [1, 1], "padding": "same", "data_format": "channels_last", "dilation_rate": [1, 1], "groups": 1, "activation": "linear", "use_bias": true, "kernel_initializer": {"class_name": "GlorotUniform", "config": {"seed": null}}, "bias_initializer": {"class_name": "Zeros", "config": {}}, "kernel_regularizer": null, "bias_regularizer": null, "activity_regularizer": null, "kernel_constraint": null, "bias_constraint": null}, "name": "conv2d_52", "inbound_nodes": [[["activation_42", 0, 0, {}]]]}, {"class_name": "MCDropout", "config": {"name": "mc_dropout_13", "trainable": true, "dtype": "float32", "rate": 0.2, "noise_shape": null, "seed": null}, "name": "mc_dropout_13", "inbound_nodes": [[["conv2d_52", 0, 0, {}]]]}, {"class_name": "Activation", "config": {"name": "activation_43", "trainable": true, "dtype": "float32", "activation": "relu"}, "name": "activation_43", "inbound_nodes": [[["mc_dropout_13", 0, 0, {}]]]}, {"class_name": "Add", "config": {"name": "add_34", "trainable": true, "dtype": "float32"}, "name": "add_34", "inbound_nodes": [[["activation_43", 0, 0, {}], ["activation_42", 0, 0, {}]]]}, {"class_name": "Conv2D", "config": {"name": "conv2d_53", "trainable": true, "dtype": "float32", "filters": 64, "kernel_size": [3, 3], "strides": [1, 1], "padding": "same", "data_format": "channels_last", "dilation_rate": [1, 1], "groups": 1, "activation": "linear", "use_bias": true, "kernel_initializer": {"class_name": "GlorotUniform", "config": {"seed": null}}, "bias_initializer": {"class_name": "Zeros", "config": {}}, "kernel_regularizer": null, "bias_regularizer": null, "activity_regularizer": null, "kernel_constraint": null, "bias_constraint": null}, "name": "conv2d_53", "inbound_nodes": [[["add_34", 0, 0, {}]]]}, {"class_name": "Activation", "config": {"name": "activation_44", "trainable": true, "dtype": "float32", "activation": "relu"}, "name": "activation_44", "inbound_nodes": [[["conv2d_53", 0, 0, {}]]]}, {"class_name": "Add", "config": {"name": "add_35", "trainable": true, "dtype": "float32"}, "name": "add_35", "inbound_nodes": [[["activation_44", 0, 0, {}], ["activation_42", 0, 0, {}]]]}, {"class_name": "Conv2D", "config": {"name": "conv2d_54", "trainable": true, "dtype": "float32", "filters": 64, "kernel_size": [3, 3], "strides": [1, 1], "padding": "same", "data_format": "channels_last", "dilation_rate": [1, 1], "groups": 1, "activation": "linear", "use_bias": true, "kernel_initializer": {"class_name": "GlorotUniform", "config": {"seed": null}}, "bias_initializer": {"class_name": "Zeros", "config": {}}, "kernel_regularizer": null, "bias_regularizer": null, "activity_regularizer": null, "kernel_constraint": null, "bias_constraint": null}, "name": "conv2d_54", "inbound_nodes": [[["add_35", 0, 0, {}]]]}, {"class_name": "Activation", "config": {"name": "activation_45", "trainable": true, "dtype": "float32", "activation": "relu"}, "name": "activation_45", "inbound_nodes": [[["conv2d_54", 0, 0, {}]]]}, {"class_name": "Add", "config": {"name": "add_36", "trainable": true, "dtype": "float32"}, "name": "add_36", "inbound_nodes": [[["activation_45", 0, 0, {}], ["conv2d_48", 0, 0, {}]]]}, {"class_name": "UpSampling2D", "config": {"name": "up_sampling2d_2", "trainable": true, "dtype": "float32", "size": [2, 2], "data_format": "channels_last", "interpolation": "nearest"}, "name": "up_sampling2d_2", "inbound_nodes": [[["add_36", 0, 0, {}]]]}, {"class_name": "Conv2D", "config": {"name": "conv2d_55", "trainable": true, "dtype": "float32", "filters": 16, "kernel_size": [1, 1], "strides": [1, 1], "padding": "valid", "data_format": "channels_last", "dilation_rate": [1, 1], "groups": 1, "activation": "linear", "use_bias": true, "kernel_initializer": {"class_name": "GlorotUniform", "config": {"seed": null}}, "bias_initializer": {"class_name": "Zeros", "config": {}}, "kernel_regularizer": null, "bias_regularizer": null, "activity_regularizer": null, "kernel_constraint": null, "bias_constraint": null}, "name": "conv2d_55", "inbound_nodes": [[["add_9", 0, 0, {}]]]}, {"class_name": "Conv2D", "config": {"name": "conv2d_56", "trainable": true, "dtype": "float32", "filters": 16, "kernel_size": [1, 1], "strides": [1, 1], "padding": "valid", "data_format": "channels_last", "dilation_rate": [1, 1], "groups": 1, "activation": "linear", "use_bias": true, "kernel_initializer": {"class_name": "GlorotUniform", "config": {"seed": null}}, "bias_initializer": {"class_name": "Zeros", "config": {}}, "kernel_regularizer": null, "bias_regularizer": null, "activity_regularizer": null, "kernel_constraint": null, "bias_constraint": null}, "name": "conv2d_56", "inbound_nodes": [[["up_sampling2d_2", 0, 0, {}]]]}, {"class_name": "Add", "config": {"name": "add_37", "trainable": true, "dtype": "float32"}, "name": "add_37", "inbound_nodes": [[["conv2d_55", 0, 0, {}], ["conv2d_56", 0, 0, {}]]]}, {"class_name": "Activation", "config": {"name": "activation_46", "trainable": true, "dtype": "float32", "activation": "relu"}, "name": "activation_46", "inbound_nodes": [[["add_37", 0, 0, {}]]]}, {"class_name": "Conv2D", "config": {"name": "conv2d_57", "trainable": true, "dtype": "float32", "filters": 1, "kernel_size": [1, 1], "strides": [1, 1], "padding": "valid", "data_format": "channels_last", "dilation_rate": [1, 1], "groups": 1, "activation": "linear", "use_bias": true, "kernel_initializer": {"class_name": "GlorotUniform", "config": {"seed": null}}, "bias_initializer": {"class_name": "Zeros", "config": {}}, "kernel_regularizer": null, "bias_regularizer": null, "activity_regularizer": null, "kernel_constraint": null, "bias_constraint": null}, "name": "conv2d_57", "inbound_nodes": [[["activation_46", 0, 0, {}]]]}, {"class_name": "Activation", "config": {"name": "activation_47", "trainable": true, "dtype": "float32", "activation": "sigmoid"}, "name": "activation_47", "inbound_nodes": [[["conv2d_57", 0, 0, {}]]]}, {"class_name": "Multiply", "config": {"name": "multiply_2", "trainable": true, "dtype": "float32"}, "name": "multiply_2", "inbound_nodes": [[["add_9", 0, 0, {}], ["activation_47", 0, 0, {}]]]}, {"class_name": "Lambda", "config": {"name": "lambda_2", "trainable": true, "dtype": "float32", "function": ["4wEAAAAAAAAAAAAAAAEAAAAEAAAAUwAAAHMaAAAAdABqAXwAZAEZAHwAZAIZAGcCZANkBI0CUwCp\nBU7pAAAAAOkBAAAA6QMAAACpAdoEYXhpc6kC2gFL2gtjb25jYXRlbmF0ZakB2gF4qQByDAAAAPov\nL3Jvb3QvRGF0YXNldF9wY2EvZHBfbW9kZWxzL2F0dG5fbXVsdGlfbW9kZWwucHnaCDxsYW1iZGE+\nLgAAAPMAAAAA\n", null, null], "function_type": "lambda", "module": "dp_models.attn_multi_model", "output_shape": null, "output_shape_type": "raw", "output_shape_module": null, "arguments": {}}, "name": "lambda_2", "inbound_nodes": [[["up_sampling2d_2", 0, 0, {}], ["multiply_2", 0, 0, {}]]]}, {"class_name": "Conv2D", "config": {"name": "conv2d_58", "trainable": true, "dtype": "float32", "filters": 32, "kernel_size": [1, 1], "strides": [1, 1], "padding": "same", "data_format": "channels_last", "dilation_rate": [1, 1], "groups": 1, "activation": "linear", "use_bias": true, "kernel_initializer": {"class_name": "GlorotUniform", "config": {"seed": null}}, "bias_initializer": {"class_name": "Zeros", "config": {}}, "kernel_regularizer": null, "bias_regularizer": null, "activity_regularizer": null, "kernel_constraint": null, "bias_constraint": null}, "name": "conv2d_58", "inbound_nodes": [[["lambda_2", 0, 0, {}]]]}, {"class_name": "Conv2D", "config": {"name": "conv2d_59", "trainable": true, "dtype": "float32", "filters": 32, "kernel_size": [3, 3], "strides": [1, 1], "padding": "same", "data_format": "channels_last", "dilation_rate": [1, 1], "groups": 1, "activation": "linear", "use_bias": true, "kernel_initializer": {"class_name": "GlorotUniform", "config": {"seed": null}}, "bias_initializer": {"class_name": "Zeros", "config": {}}, "kernel_regularizer": null, "bias_regularizer": null, "activity_regularizer": null, "kernel_constraint": null, "bias_constraint": null}, "name": "conv2d_59", "inbound_nodes": [[["conv2d_58", 0, 0, {}]]]}, {"class_name": "MCDropout", "config": {"name": "mc_dropout_14", "trainable": true, "dtype": "float32", "rate": 0.2, "noise_shape": null, "seed": null}, "name": "mc_dropout_14", "inbound_nodes": [[["conv2d_59", 0, 0, {}]]]}, {"class_name": "Activation", "config": {"name": "activation_48", "trainable": true, "dtype": "float32", "activation": "relu"}, "name": "activation_48", "inbound_nodes": [[["mc_dropout_14", 0, 0, {}]]]}, {"class_name": "Add", "config": {"name": "add_38", "trainable": true, "dtype": "float32"}, "name": "add_38", "inbound_nodes": [[["activation_48", 0, 0, {}], ["conv2d_58", 0, 0, {}]]]}, {"class_name": "Conv2D", "config": {"name": "conv2d_60", "trainable": true, "dtype": "float32", "filters": 32, "kernel_size": [3, 3], "strides": [1, 1], "padding": "same", "data_format": "channels_last", "dilation_rate": [1, 1], "groups": 1, "activation": "linear", "use_bias": true, "kernel_initializer": {"class_name": "GlorotUniform", "config": {"seed": null}}, "bias_initializer": {"class_name": "Zeros", "config": {}}, "kernel_regularizer": null, "bias_regularizer": null, "activity_regularizer": null, "kernel_constraint": null, "bias_constraint": null}, "name": "conv2d_60", "inbound_nodes": [[["add_38", 0, 0, {}]]]}, {"class_name": "Activation", "config": {"name": "activation_49", "trainable": true, "dtype": "float32", "activation": "relu"}, "name": "activation_49", "inbound_nodes": [[["conv2d_60", 0, 0, {}]]]}, {"class_name": "Add", "config": {"name": "add_39", "trainable": true, "dtype": "float32"}, "name": "add_39", "inbound_nodes": [[["activation_49", 0, 0, {}], ["conv2d_58", 0, 0, {}]]]}, {"class_name": "Conv2D", "config": {"name": "conv2d_61", "trainable": true, "dtype": "float32", "filters": 32, "kernel_size": [3, 3], "strides": [1, 1], "padding": "same", "data_format": "channels_last", "dilation_rate": [1, 1], "groups": 1, "activation": "linear", "use_bias": true, "kernel_initializer": {"class_name": "GlorotUniform", "config": {"seed": null}}, "bias_initializer": {"class_name": "Zeros", "config": {}}, "kernel_regularizer": null, "bias_regularizer": null, "activity_regularizer": null, "kernel_constraint": null, "bias_constraint": null}, "name": "conv2d_61", "inbound_nodes": [[["add_39", 0, 0, {}]]]}, {"class_name": "Activation", "config": {"name": "activation_50", "trainable": true, "dtype": "float32", "activation": "relu"}, "name": "activation_50", "inbound_nodes": [[["conv2d_61", 0, 0, {}]]]}, {"class_name": "Conv2D", "config": {"name": "conv2d_62", "trainable": true, "dtype": "float32", "filters": 32, "kernel_size": [3, 3], "strides": [1, 1], "padding": "same", "data_format": "channels_last", "dilation_rate": [1, 1], "groups": 1, "activation": "linear", "use_bias": true, "kernel_initializer": {"class_name": "GlorotUniform", "config": {"seed": null}}, "bias_initializer": {"class_name": "Zeros", "config": {}}, "kernel_regularizer": null, "bias_regularizer": null, "activity_regularizer": null, "kernel_constraint": null, "bias_constraint": null}, "name": "conv2d_62", "inbound_nodes": [[["activation_50", 0, 0, {}]]]}, {"class_name": "MCDropout", "config": {"name": "mc_dropout_15", "trainable": true, "dtype": "float32", "rate": 0.2, "noise_shape": null, "seed": null}, "name": "mc_dropout_15", "inbound_nodes": [[["conv2d_62", 0, 0, {}]]]}, {"class_name": "Activation", "config": {"name": "activation_51", "trainable": true, "dtype": "float32", "activation": "relu"}, "name": "activation_51", "inbound_nodes": [[["mc_dropout_15", 0, 0, {}]]]}, {"class_name": "Add", "config": {"name": "add_40", "trainable": true, "dtype": "float32"}, "name": "add_40", "inbound_nodes": [[["activation_51", 0, 0, {}], ["activation_50", 0, 0, {}]]]}, {"class_name": "Conv2D", "config": {"name": "conv2d_63", "trainable": true, "dtype": "float32", "filters": 32, "kernel_size": [3, 3], "strides": [1, 1], "padding": "same", "data_format": "channels_last", "dilation_rate": [1, 1], "groups": 1, "activation": "linear", "use_bias": true, "kernel_initializer": {"class_name": "GlorotUniform", "config": {"seed": null}}, "bias_initializer": {"class_name": "Zeros", "config": {}}, "kernel_regularizer": null, "bias_regularizer": null, "activity_regularizer": null, "kernel_constraint": null, "bias_constraint": null}, "name": "conv2d_63", "inbound_nodes": [[["add_40", 0, 0, {}]]]}, {"class_name": "Activation", "config": {"name": "activation_52", "trainable": true, "dtype": "float32", "activation": "relu"}, "name": "activation_52", "inbound_nodes": [[["conv2d_63", 0, 0, {}]]]}, {"class_name": "Add", "config": {"name": "add_41", "trainable": true, "dtype": "float32"}, "name": "add_41", "inbound_nodes": [[["activation_52", 0, 0, {}], ["activation_50", 0, 0, {}]]]}, {"class_name": "Conv2D", "config": {"name": "conv2d_64", "trainable": true, "dtype": "float32", "filters": 32, "kernel_size": [3, 3], "strides": [1, 1], "padding": "same", "data_format": "channels_last", "dilation_rate": [1, 1], "groups": 1, "activation": "linear", "use_bias": true, "kernel_initializer": {"class_name": "GlorotUniform", "config": {"seed": null}}, "bias_initializer": {"class_name": "Zeros", "config": {}}, "kernel_regularizer": null, "bias_regularizer": null, "activity_regularizer": null, "kernel_constraint": null, "bias_constraint": null}, "name": "conv2d_64", "inbound_nodes": [[["add_41", 0, 0, {}]]]}, {"class_name": "Activation", "config": {"name": "activation_53", "trainable": true, "dtype": "float32", "activation": "relu"}, "name": "activation_53", "inbound_nodes": [[["conv2d_64", 0, 0, {}]]]}, {"class_name": "Add", "config": {"name": "add_42", "trainable": true, "dtype": "float32"}, "name": "add_42", "inbound_nodes": [[["activation_53", 0, 0, {}], ["conv2d_58", 0, 0, {}]]]}, {"class_name": "UpSampling2D", "config": {"name": "up_sampling2d_3", "trainable": true, "dtype": "float32", "size": [2, 2], "data_format": "channels_last", "interpolation": "nearest"}, "name": "up_sampling2d_3", "inbound_nodes": [[["add_42", 0, 0, {}]]]}, {"class_name": "Conv2D", "config": {"name": "conv2d_65", "trainable": true, "dtype": "float32", "filters": 8, "kernel_size": [1, 1], "strides": [1, 1], "padding": "valid", "data_format": "channels_last", "dilation_rate": [1, 1], "groups": 1, "activation": "linear", "use_bias": true, "kernel_initializer": {"class_name": "GlorotUniform", "config": {"seed": null}}, "bias_initializer": {"class_name": "Zeros", "config": {}}, "kernel_regularizer": null, "bias_regularizer": null, "activity_regularizer": null, "kernel_constraint": null, "bias_constraint": null}, "name": "conv2d_65", "inbound_nodes": [[["add_4", 0, 0, {}]]]}, {"class_name": "Conv2D", "config": {"name": "conv2d_66", "trainable": true, "dtype": "float32", "filters": 8, "kernel_size": [1, 1], "strides": [1, 1], "padding": "valid", "data_format": "channels_last", "dilation_rate": [1, 1], "groups": 1, "activation": "linear", "use_bias": true, "kernel_initializer": {"class_name": "GlorotUniform", "config": {"seed": null}}, "bias_initializer": {"class_name": "Zeros", "config": {}}, "kernel_regularizer": null, "bias_regularizer": null, "activity_regularizer": null, "kernel_constraint": null, "bias_constraint": null}, "name": "conv2d_66", "inbound_nodes": [[["up_sampling2d_3", 0, 0, {}]]]}, {"class_name": "Add", "config": {"name": "add_43", "trainable": true, "dtype": "float32"}, "name": "add_43", "inbound_nodes": [[["conv2d_65", 0, 0, {}], ["conv2d_66", 0, 0, {}]]]}, {"class_name": "Activation", "config": {"name": "activation_54", "trainable": true, "dtype": "float32", "activation": "relu"}, "name": "activation_54", "inbound_nodes": [[["add_43", 0, 0, {}]]]}, {"class_name": "Conv2D", "config": {"name": "conv2d_67", "trainable": true, "dtype": "float32", "filters": 1, "kernel_size": [1, 1], "strides": [1, 1], "padding": "valid", "data_format": "channels_last", "dilation_rate": [1, 1], "groups": 1, "activation": "linear", "use_bias": true, "kernel_initializer": {"class_name": "GlorotUniform", "config": {"seed": null}}, "bias_initializer": {"class_name": "Zeros", "config": {}}, "kernel_regularizer": null, "bias_regularizer": null, "activity_regularizer": null, "kernel_constraint": null, "bias_constraint": null}, "name": "conv2d_67", "inbound_nodes": [[["activation_54", 0, 0, {}]]]}, {"class_name": "Activation", "config": {"name": "activation_55", "trainable": true, "dtype": "float32", "activation": "sigmoid"}, "name": "activation_55", "inbound_nodes": [[["conv2d_67", 0, 0, {}]]]}, {"class_name": "Multiply", "config": {"name": "multiply_3", "trainable": true, "dtype": "float32"}, "name": "multiply_3", "inbound_nodes": [[["add_4", 0, 0, {}], ["activation_55", 0, 0, {}]]]}, {"class_name": "Lambda", "config": {"name": "lambda_3", "trainable": true, "dtype": "float32", "function": ["4wEAAAAAAAAAAAAAAAEAAAAEAAAAUwAAAHMaAAAAdABqAXwAZAEZAHwAZAIZAGcCZANkBI0CUwCp\nBU7pAAAAAOkBAAAA6QMAAACpAdoEYXhpc6kC2gFL2gtjb25jYXRlbmF0ZakB2gF4qQByDAAAAPov\nL3Jvb3QvRGF0YXNldF9wY2EvZHBfbW9kZWxzL2F0dG5fbXVsdGlfbW9kZWwucHnaCDxsYW1iZGE+\nLgAAAPMAAAAA\n", null, null], "function_type": "lambda", "module": "dp_models.attn_multi_model", "output_shape": null, "output_shape_type": "raw", "output_shape_module": null, "arguments": {}}, "name": "lambda_3", "inbound_nodes": [[["up_sampling2d_3", 0, 0, {}], ["multiply_3", 0, 0, {}]]]}, {"class_name": "Conv2D", "config": {"name": "conv2d_68", "trainable": true, "dtype": "float32", "filters": 16, "kernel_size": [1, 1], "strides": [1, 1], "padding": "same", "data_format": "channels_last", "dilation_rate": [1, 1], "groups": 1, "activation": "linear", "use_bias": true, "kernel_initializer": {"class_name": "GlorotUniform", "config": {"seed": null}}, "bias_initializer": {"class_name": "Zeros", "config": {}}, "kernel_regularizer": null, "bias_regularizer": null, "activity_regularizer": null, "kernel_constraint": null, "bias_constraint": null}, "name": "conv2d_68", "inbound_nodes": [[["lambda_3", 0, 0, {}]]]}, {"class_name": "Conv2D", "config": {"name": "conv2d_69", "trainable": true, "dtype": "float32", "filters": 16, "kernel_size": [3, 3], "strides": [1, 1], "padding": "same", "data_format": "channels_last", "dilation_rate": [1, 1], "groups": 1, "activation": "linear", "use_bias": true, "kernel_initializer": {"class_name": "GlorotUniform", "config": {"seed": null}}, "bias_initializer": {"class_name": "Zeros", "config": {}}, "kernel_regularizer": null, "bias_regularizer": null, "activity_regularizer": null, "kernel_constraint": null, "bias_constraint": null}, "name": "conv2d_69", "inbound_nodes": [[["conv2d_68", 0, 0, {}]]]}, {"class_name": "MCDropout", "config": {"name": "mc_dropout_16", "trainable": true, "dtype": "float32", "rate": 0.2, "noise_shape": null, "seed": null}, "name": "mc_dropout_16", "inbound_nodes": [[["conv2d_69", 0, 0, {}]]]}, {"class_name": "Activation", "config": {"name": "activation_56", "trainable": true, "dtype": "float32", "activation": "relu"}, "name": "activation_56", "inbound_nodes": [[["mc_dropout_16", 0, 0, {}]]]}, {"class_name": "Add", "config": {"name": "add_44", "trainable": true, "dtype": "float32"}, "name": "add_44", "inbound_nodes": [[["activation_56", 0, 0, {}], ["conv2d_68", 0, 0, {}]]]}, {"class_name": "Conv2D", "config": {"name": "conv2d_70", "trainable": true, "dtype": "float32", "filters": 16, "kernel_size": [3, 3], "strides": [1, 1], "padding": "same", "data_format": "channels_last", "dilation_rate": [1, 1], "groups": 1, "activation": "linear", "use_bias": true, "kernel_initializer": {"class_name": "GlorotUniform", "config": {"seed": null}}, "bias_initializer": {"class_name": "Zeros", "config": {}}, "kernel_regularizer": null, "bias_regularizer": null, "activity_regularizer": null, "kernel_constraint": null, "bias_constraint": null}, "name": "conv2d_70", "inbound_nodes": [[["add_44", 0, 0, {}]]]}, {"class_name": "Activation", "config": {"name": "activation_57", "trainable": true, "dtype": "float32", "activation": "relu"}, "name": "activation_57", "inbound_nodes": [[["conv2d_70", 0, 0, {}]]]}, {"class_name": "Add", "config": {"name": "add_45", "trainable": true, "dtype": "float32"}, "name": "add_45", "inbound_nodes": [[["activation_57", 0, 0, {}], ["conv2d_68", 0, 0, {}]]]}, {"class_name": "Conv2D", "config": {"name": "conv2d_71", "trainable": true, "dtype": "float32", "filters": 16, "kernel_size": [3, 3], "strides": [1, 1], "padding": "same", "data_format": "channels_last", "dilation_rate": [1, 1], "groups": 1, "activation": "linear", "use_bias": true, "kernel_initializer": {"class_name": "GlorotUniform", "config": {"seed": null}}, "bias_initializer": {"class_name": "Zeros", "config": {}}, "kernel_regularizer": null, "bias_regularizer": null, "activity_regularizer": null, "kernel_constraint": null, "bias_constraint": null}, "name": "conv2d_71", "inbound_nodes": [[["add_45", 0, 0, {}]]]}, {"class_name": "Activation", "config": {"name": "activation_58", "trainable": true, "dtype": "float32", "activation": "relu"}, "name": "activation_58", "inbound_nodes": [[["conv2d_71", 0, 0, {}]]]}, {"class_name": "Conv2D", "config": {"name": "conv2d_72", "trainable": true, "dtype": "float32", "filters": 16, "kernel_size": [3, 3], "strides": [1, 1], "padding": "same", "data_format": "channels_last", "dilation_rate": [1, 1], "groups": 1, "activation": "linear", "use_bias": true, "kernel_initializer": {"class_name": "GlorotUniform", "config": {"seed": null}}, "bias_initializer": {"class_name": "Zeros", "config": {}}, "kernel_regularizer": null, "bias_regularizer": null, "activity_regularizer": null, "kernel_constraint": null, "bias_constraint": null}, "name": "conv2d_72", "inbound_nodes": [[["activation_58", 0, 0, {}]]]}, {"class_name": "MCDropout", "config": {"name": "mc_dropout_17", "trainable": true, "dtype": "float32", "rate": 0.2, "noise_shape": null, "seed": null}, "name": "mc_dropout_17", "inbound_nodes": [[["conv2d_72", 0, 0, {}]]]}, {"class_name": "Activation", "config": {"name": "activation_59", "trainable": true, "dtype": "float32", "activation": "relu"}, "name": "activation_59", "inbound_nodes": [[["mc_dropout_17", 0, 0, {}]]]}, {"class_name": "Add", "config": {"name": "add_46", "trainable": true, "dtype": "float32"}, "name": "add_46", "inbound_nodes": [[["activation_59", 0, 0, {}], ["activation_58", 0, 0, {}]]]}, {"class_name": "Conv2D", "config": {"name": "conv2d_73", "trainable": true, "dtype": "float32", "filters": 16, "kernel_size": [3, 3], "strides": [1, 1], "padding": "same", "data_format": "channels_last", "dilation_rate": [1, 1], "groups": 1, "activation": "linear", "use_bias": true, "kernel_initializer": {"class_name": "GlorotUniform", "config": {"seed": null}}, "bias_initializer": {"class_name": "Zeros", "config": {}}, "kernel_regularizer": null, "bias_regularizer": null, "activity_regularizer": null, "kernel_constraint": null, "bias_constraint": null}, "name": "conv2d_73", "inbound_nodes": [[["add_46", 0, 0, {}]]]}, {"class_name": "Activation", "config": {"name": "activation_60", "trainable": true, "dtype": "float32", "activation": "relu"}, "name": "activation_60", "inbound_nodes": [[["conv2d_73", 0, 0, {}]]]}, {"class_name": "Add", "config": {"name": "add_47", "trainable": true, "dtype": "float32"}, "name": "add_47", "inbound_nodes": [[["activation_60", 0, 0, {}], ["activation_58", 0, 0, {}]]]}, {"class_name": "Conv2D", "config": {"name": "conv2d_74", "trainable": true, "dtype": "float32", "filters": 16, "kernel_size": [3, 3], "strides": [1, 1], "padding": "same", "data_format": "channels_last", "dilation_rate": [1, 1], "groups": 1, "activation": "linear", "use_bias": true, "kernel_initializer": {"class_name": "GlorotUniform", "config": {"seed": null}}, "bias_initializer": {"class_name": "Zeros", "config": {}}, "kernel_regularizer": null, "bias_regularizer": null, "activity_regularizer": null, "kernel_constraint": null, "bias_constraint": null}, "name": "conv2d_74", "inbound_nodes": [[["add_47", 0, 0, {}]]]}, {"class_name": "Activation", "config": {"name": "activation_61", "trainable": true, "dtype": "float32", "activation": "relu"}, "name": "activation_61", "inbound_nodes": [[["conv2d_74", 0, 0, {}]]]}, {"class_name": "Add", "config": {"name": "add_48", "trainable": true, "dtype": "float32"}, "name": "add_48", "inbound_nodes": [[["activation_61", 0, 0, {}], ["conv2d_68", 0, 0, {}]]]}, {"class_name": "Conv2D", "config": {"name": "conv2d_75", "trainable": true, "dtype": "float32", "filters": 5, "kernel_size": [1, 1], "strides": [1, 1], "padding": "same", "data_format": "channels_last", "dilation_rate": [1, 1], "groups": 1, "activation": "linear", "use_bias": true, "kernel_initializer": {"class_name": "GlorotUniform", "config": {"seed": null}}, "bias_initializer": {"class_name": "Zeros", "config": {}}, "kernel_regularizer": null, "bias_regularizer": null, "activity_regularizer": null, "kernel_constraint": null, "bias_constraint": null}, "name": "conv2d_75", "inbound_nodes": [[["add_48", 0, 0, {}]]]}, {"class_name": "Activation", "config": {"name": "activation_62", "trainable": true, "dtype": "float32", "activation": "softmax"}, "name": "activation_62", "inbound_nodes": [[["conv2d_75", 0, 0, {}]]]}], "input_layers": [["input_1", 0, 0]], "output_layers": [["activation_62", 0, 0]]}, "keras_version": "2.10.0", "backend": "tensorflow"}