{"class_name": "Functional", "config": {"name": "model_4", "layers": [{"class_name": "InputLayer", "config": {"batch_input_shape": [null, 256, 256, 1], "dtype": "float32", "sparse": false, "ragged": false, "name": "input_5"}, "name": "input_5", "inbound_nodes": []}, {"class_name": "Conv2D", "config": {"name": "conv2d_120", "trainable": true, "dtype": "float32", "filters": 16, "kernel_size": [1, 1], "strides": [1, 1], "padding": "same", "data_format": "channels_last", "dilation_rate": [1, 1], "groups": 1, "activation": "linear", "use_bias": true, "kernel_initializer": {"class_name": "GlorotUniform", "config": {"seed": null}}, "bias_initializer": {"class_name": "Zeros", "config": {}}, "kernel_regularizer": null, "bias_regularizer": null, "activity_regularizer": null, "kernel_constraint": null, "bias_constraint": null}, "name": "conv2d_120", "inbound_nodes": [[["input_5", 0, 0, {}]]]}, {"class_name": "Conv2D", "config": {"name": "conv2d_121", "trainable": true, "dtype": "float32", "filters": 16, "kernel_size": [3, 3], "strides": [1, 1], "padding": "same", "data_format": "channels_last", "dilation_rate": [1, 1], "groups": 1, "activation": "linear", "use_bias": true, "kernel_initializer": {"class_name": "GlorotUniform", "config": {"seed": null}}, "bias_initializer": {"class_name": "Zeros", "config": {}}, "kernel_regularizer": null, "bias_regularizer": null, "activity_regularizer": null, "kernel_constraint": null, "bias_constraint": null}, "name": "conv2d_121", "inbound_nodes": [[["conv2d_120", 0, 0, {}]]]}, {"class_name": "MCDropout", "config": {"name": "mc_dropout_36", "trainable": true, "dtype": "float32", "rate": 0.2, "noise_shape": null, "seed": null}, "name": "mc_dropout_36", "inbound_nodes": [[["conv2d_121", 0, 0, {}]]]}, {"class_name": "Activation", "config": {"name": "activation_64", "trainable": true, "dtype": "float32", "activation": "relu"}, "name": "activation_64", "inbound_nodes": [[["mc_dropout_36", 0, 0, {}]]]}, {"class_name": "Add", "config": {"name": "add_8", "trainable": true, "dtype": "float32"}, "name": "add_8", "inbound_nodes": [[["activation_64", 0, 0, {}], ["conv2d_120", 0, 0, {}]]]}, {"class_name": "Conv2D", "config": {"name": "conv2d_122", "trainable": true, "dtype": "float32", "filters": 16, "kernel_size": [3, 3], "strides": [1, 1], "padding": "same", "data_format": "channels_last", "dilation_rate": [1, 1], "groups": 1, "activation": "linear", "use_bias": true, "kernel_initializer": {"class_name": "GlorotUniform", "config": {"seed": null}}, "bias_initializer": {"class_name": "Zeros", "config": {}}, "kernel_regularizer": null, "bias_regularizer": null, "activity_regularizer": null, "kernel_constraint": null, "bias_constraint": null}, "name": "conv2d_122", "inbound_nodes": [[["add_8", 0, 0, {}]]]}, {"class_name": "Activation", "config": {"name": "activation_65", "trainable": true, "dtype": "float32", "activation": "relu"}, "name": "activation_65", "inbound_nodes": [[["conv2d_122", 0, 0, {}]]]}, {"class_name": "Add", "config": {"name": "add_9", "trainable": true, "dtype": "float32"}, "name": "add_9", "inbound_nodes": [[["activation_65", 0, 0, {}], ["conv2d_120", 0, 0, {}]]]}, {"class_name": "Conv2D", "config": {"name": "conv2d_123", "trainable": true, "dtype": "float32", "filters": 16, "kernel_size": [3, 3], "strides": [1, 1], "padding": "same", "data_format": "channels_last", "dilation_rate": [1, 1], "groups": 1, "activation": "linear", "use_bias": true, "kernel_initializer": {"class_name": "GlorotUniform", "config": {"seed": null}}, "bias_initializer": {"class_name": "Zeros", "config": {}}, "kernel_regularizer": null, "bias_regularizer": null, "activity_regularizer": null, "kernel_constraint": null, "bias_constraint": null}, "name": "conv2d_123", "inbound_nodes": [[["add_9", 0, 0, {}]]]}, {"class_name": "Activation", "config": {"name": "activation_66", "trainable": true, "dtype": "float32", "activation": "relu"}, "name": "activation_66", "inbound_nodes": [[["conv2d_123", 0, 0, {}]]]}, {"class_name": "Conv2D", "config": {"name": "conv2d_124", "trainable": true, "dtype": "float32", "filters": 16, "kernel_size": [3, 3], "strides": [1, 1], "padding": "same", "data_format": "channels_last", "dilation_rate": [1, 1], "groups": 1, "activation": "linear", "use_bias": true, "kernel_initializer": {"class_name": "GlorotUniform", "config": {"seed": null}}, "bias_initializer": {"class_name": "Zeros", "config": {}}, "kernel_regularizer": null, "bias_regularizer": null, "activity_regularizer": null, "kernel_constraint": null, "bias_constraint": null}, "name": "conv2d_124", "inbound_nodes": [[["activation_66", 0, 0, {}]]]}, {"class_name": "MCDropout", "config": {"name": "mc_dropout_37", "trainable": true, "dtype": "float32", "rate": 0.2, "noise_shape": null, "seed": null}, "name": "mc_dropout_37", "inbound_nodes": [[["conv2d_124", 0, 0, {}]]]}, {"class_name": "Activation", "config": {"name": "activation_67", "trainable": true, "dtype": "float32", "activation": "relu"}, "name": "activation_67", "inbound_nodes": [[["mc_dropout_37", 0, 0, {}]]]}, {"class_name": "Add", "config": {"name": "add_10", "trainable": true, "dtype": "float32"}, "name": "add_10", "inbound_nodes": [[["activation_67", 0, 0, {}], ["activation_66", 0, 0, {}]]]}, {"class_name": "Conv2D", "config": {"name": "conv2d_125", "trainable": true, "dtype": "float32", "filters": 16, "kernel_size": [3, 3], "strides": [1, 1], "padding": "same", "data_format": "channels_last", "dilation_rate": [1, 1], "groups": 1, "activation": "linear", "use_bias": true, "kernel_initializer": {"class_name": "GlorotUniform", "config": {"seed": null}}, "bias_initializer": {"class_name": "Zeros", "config": {}}, "kernel_regularizer": null, "bias_regularizer": null, "activity_regularizer": null, "kernel_constraint": null, "bias_constraint": null}, "name": "conv2d_125", "inbound_nodes": [[["add_10", 0, 0, {}]]]}, {"class_name": "Activation", "config": {"name": "activation_68", "trainable": true, "dtype": "float32", "activation": "relu"}, "name": "activation_68", "inbound_nodes": [[["conv2d_125", 0, 0, {}]]]}, {"class_name": "Add", "config": {"name": "add_11", "trainable": true, "dtype": "float32"}, "name": "add_11", "inbound_nodes": [[["activation_68", 0, 0, {}], ["activation_66", 0, 0, {}]]]}, {"class_name": "Conv2D", "config": {"name": "conv2d_126", "trainable": true, "dtype": "float32", "filters": 16, "kernel_size": [3, 3], "strides": [1, 1], "padding": "same", "data_format": "channels_last", "dilation_rate": [1, 1], "groups": 1, "activation": "linear", "use_bias": true, "kernel_initializer": {"class_name": "GlorotUniform", "config": {"seed": null}}, "bias_initializer": {"class_name": "Zeros", "config": {}}, "kernel_regularizer": null, "bias_regularizer": null, "activity_regularizer": null, "kernel_constraint": null, "bias_constraint": null}, "name": "conv2d_126", "inbound_nodes": [[["add_11", 0, 0, {}]]]}, {"class_name": "Activation", "config": {"name": "activation_69", "trainable": true, "dtype": "float32", "activation": "relu"}, "name": "activation_69", "inbound_nodes": [[["conv2d_126", 0, 0, {}]]]}, {"class_name": "Add", "config": {"name": "add_12", "trainable": true, "dtype": "float32"}, "name": "add_12", "inbound_nodes": [[["activation_69", 0, 0, {}], ["conv2d_120", 0, 0, {}]]]}, {"class_name": "MaxPooling2D", "config": {"name": "max_pooling2d_16", "trainable": true, "dtype": "float32", "pool_size": [2, 2], "padding": "valid", "strides": [2, 2], "data_format": "channels_last"}, "name": "max_pooling2d_16", "inbound_nodes": [[["add_12", 0, 0, {}]]]}, {"class_name": "Conv2D", "config": {"name": "conv2d_127", "trainable": true, "dtype": "float32", "filters": 32, "kernel_size": [1, 1], "strides": [1, 1], "padding": "same", "data_format": "channels_last", "dilation_rate": [1, 1], "groups": 1, "activation": "linear", "use_bias": true, "kernel_initializer": {"class_name": "GlorotUniform", "config": {"seed": null}}, "bias_initializer": {"class_name": "Zeros", "config": {}}, "kernel_regularizer": null, "bias_regularizer": null, "activity_regularizer": null, "kernel_constraint": null, "bias_constraint": null}, "name": "conv2d_127", "inbound_nodes": [[["max_pooling2d_16", 0, 0, {}]]]}, {"class_name": "Conv2D", "config": {"name": "conv2d_128", "trainable": true, "dtype": "float32", "filters": 32, "kernel_size": [3, 3], "strides": [1, 1], "padding": "same", "data_format": "channels_last", "dilation_rate": [1, 1], "groups": 1, "activation": "linear", "use_bias": true, "kernel_initializer": {"class_name": "GlorotUniform", "config": {"seed": null}}, "bias_initializer": {"class_name": "Zeros", "config": {}}, "kernel_regularizer": null, "bias_regularizer": null, "activity_regularizer": null, "kernel_constraint": null, "bias_constraint": null}, "name": "conv2d_128", "inbound_nodes": [[["conv2d_127", 0, 0, {}]]]}, {"class_name": "MCDropout", "config": {"name": "mc_dropout_38", "trainable": true, "dtype": "float32", "rate": 0.2, "noise_shape": null, "seed": null}, "name": "mc_dropout_38", "inbound_nodes": [[["conv2d_128", 0, 0, {}]]]}, {"class_name": "Activation", "config": {"name": "activation_70", "trainable": true, "dtype": "float32", "activation": "relu"}, "name": "activation_70", "inbound_nodes": [[["mc_dropout_38", 0, 0, {}]]]}, {"class_name": "Add", "config": {"name": "add_13", "trainable": true, "dtype": "float32"}, "name": "add_13", "inbound_nodes": [[["activation_70", 0, 0, {}], ["conv2d_127", 0, 0, {}]]]}, {"class_name": "Conv2D", "config": {"name": "conv2d_129", "trainable": true, "dtype": "float32", "filters": 32, "kernel_size": [3, 3], "strides": [1, 1], "padding": "same", "data_format": "channels_last", "dilation_rate": [1, 1], "groups": 1, "activation": "linear", "use_bias": true, "kernel_initializer": {"class_name": "GlorotUniform", "config": {"seed": null}}, "bias_initializer": {"class_name": "Zeros", "config": {}}, "kernel_regularizer": null, "bias_regularizer": null, "activity_regularizer": null, "kernel_constraint": null, "bias_constraint": null}, "name": "conv2d_129", "inbound_nodes": [[["add_13", 0, 0, {}]]]}, {"class_name": "Activation", "config": {"name": "activation_71", "trainable": true, "dtype": "float32", "activation": "relu"}, "name": "activation_71", "inbound_nodes": [[["conv2d_129", 0, 0, {}]]]}, {"class_name": "Add", "config": {"name": "add_14", "trainable": true, "dtype": "float32"}, "name": "add_14", "inbound_nodes": [[["activation_71", 0, 0, {}], ["conv2d_127", 0, 0, {}]]]}, {"class_name": "Conv2D", "config": {"name": "conv2d_130", "trainable": true, "dtype": "float32", "filters": 32, "kernel_size": [3, 3], "strides": [1, 1], "padding": "same", "data_format": "channels_last", "dilation_rate": [1, 1], "groups": 1, "activation": "linear", "use_bias": true, "kernel_initializer": {"class_name": "GlorotUniform", "config": {"seed": null}}, "bias_initializer": {"class_name": "Zeros", "config": {}}, "kernel_regularizer": null, "bias_regularizer": null, "activity_regularizer": null, "kernel_constraint": null, "bias_constraint": null}, "name": "conv2d_130", "inbound_nodes": [[["add_14", 0, 0, {}]]]}, {"class_name": "Activation", "config": {"name": "activation_72", "trainable": true, "dtype": "float32", "activation": "relu"}, "name": "activation_72", "inbound_nodes": [[["conv2d_130", 0, 0, {}]]]}, {"class_name": "Conv2D", "config": {"name": "conv2d_131", "trainable": true, "dtype": "float32", "filters": 32, "kernel_size": [3, 3], "strides": [1, 1], "padding": "same", "data_format": "channels_last", "dilation_rate": [1, 1], "groups": 1, "activation": "linear", "use_bias": true, "kernel_initializer": {"class_name": "GlorotUniform", "config": {"seed": null}}, "bias_initializer": {"class_name": "Zeros", "config": {}}, "kernel_regularizer": null, "bias_regularizer": null, "activity_regularizer": null, "kernel_constraint": null, "bias_constraint": null}, "name": "conv2d_131", "inbound_nodes": [[["activation_72", 0, 0, {}]]]}, {"class_name": "MCDropout", "config": {"name": "mc_dropout_39", "trainable": true, "dtype": "float32", "rate": 0.2, "noise_shape": null, "seed": null}, "name": "mc_dropout_39", "inbound_nodes": [[["conv2d_131", 0, 0, {}]]]}, {"class_name": "Activation", "config": {"name": "activation_73", "trainable": true, "dtype": "float32", "activation": "relu"}, "name": "activation_73", "inbound_nodes": [[["mc_dropout_39", 0, 0, {}]]]}, {"class_name": "Add", "config": {"name": "add_15", "trainable": true, "dtype": "float32"}, "name": "add_15", "inbound_nodes": [[["activation_73", 0, 0, {}], ["activation_72", 0, 0, {}]]]}, {"class_name": "Conv2D", "config": {"name": "conv2d_132", "trainable": true, "dtype": "float32", "filters": 32, "kernel_size": [3, 3], "strides": [1, 1], "padding": "same", "data_format": "channels_last", "dilation_rate": [1, 1], "groups": 1, "activation": "linear", "use_bias": true, "kernel_initializer": {"class_name": "GlorotUniform", "config": {"seed": null}}, "bias_initializer": {"class_name": "Zeros", "config": {}}, "kernel_regularizer": null, "bias_regularizer": null, "activity_regularizer": null, "kernel_constraint": null, "bias_constraint": null}, "name": "conv2d_132", "inbound_nodes": [[["add_15", 0, 0, {}]]]}, {"class_name": "Activation", "config": {"name": "activation_74", "trainable": true, "dtype": "float32", "activation": "relu"}, "name": "activation_74", "inbound_nodes": [[["conv2d_132", 0, 0, {}]]]}, {"class_name": "Add", "config": {"name": "add_16", "trainable": true, "dtype": "float32"}, "name": "add_16", "inbound_nodes": [[["activation_74", 0, 0, {}], ["activation_72", 0, 0, {}]]]}, {"class_name": "Conv2D", "config": {"name": "conv2d_133", "trainable": true, "dtype": "float32", "filters": 32, "kernel_size": [3, 3], "strides": [1, 1], "padding": "same", "data_format": "channels_last", "dilation_rate": [1, 1], "groups": 1, "activation": "linear", "use_bias": true, "kernel_initializer": {"class_name": "GlorotUniform", "config": {"seed": null}}, "bias_initializer": {"class_name": "Zeros", "config": {}}, "kernel_regularizer": null, "bias_regularizer": null, "activity_regularizer": null, "kernel_constraint": null, "bias_constraint": null}, "name": "conv2d_133", "inbound_nodes": [[["add_16", 0, 0, {}]]]}, {"class_name": "Activation", "config": {"name": "activation_75", "trainable": true, "dtype": "float32", "activation": "relu"}, "name": "activation_75", "inbound_nodes": [[["conv2d_133", 0, 0, {}]]]}, {"class_name": "Add", "config": {"name": "add_17", "trainable": true, "dtype": "float32"}, "name": "add_17", "inbound_nodes": [[["activation_75", 0, 0, {}], ["conv2d_127", 0, 0, {}]]]}, {"class_name": "MaxPooling2D", "config": {"name": "max_pooling2d_17", "trainable": true, "dtype": "float32", "pool_size": [2, 2], "padding": "valid", "strides": [2, 2], "data_format": "channels_last"}, "name": "max_pooling2d_17", "inbound_nodes": [[["add_17", 0, 0, {}]]]}, {"class_name": "Conv2D", "config": {"name": "conv2d_134", "trainable": true, "dtype": "float32", "filters": 64, "kernel_size": [1, 1], "strides": [1, 1], "padding": "same", "data_format": "channels_last", "dilation_rate": [1, 1], "groups": 1, "activation": "linear", "use_bias": true, "kernel_initializer": {"class_name": "GlorotUniform", "config": {"seed": null}}, "bias_initializer": {"class_name": "Zeros", "config": {}}, "kernel_regularizer": null, "bias_regularizer": null, "activity_regularizer": null, "kernel_constraint": null, "bias_constraint": null}, "name": "conv2d_134", "inbound_nodes": [[["max_pooling2d_17", 0, 0, {}]]]}, {"class_name": "Conv2D", "config": {"name": "conv2d_135", "trainable": true, "dtype": "float32", "filters": 64, "kernel_size": [3, 3], "strides": [1, 1], "padding": "same", "data_format": "channels_last", "dilation_rate": [1, 1], "groups": 1, "activation": "linear", "use_bias": true, "kernel_initializer": {"class_name": "GlorotUniform", "config": {"seed": null}}, "bias_initializer": {"class_name": "Zeros", "config": {}}, "kernel_regularizer": null, "bias_regularizer": null, "activity_regularizer": null, "kernel_constraint": null, "bias_constraint": null}, "name": "conv2d_135", "inbound_nodes": [[["conv2d_134", 0, 0, {}]]]}, {"class_name": "MCDropout", "config": {"name": "mc_dropout_40", "trainable": true, "dtype": "float32", "rate": 0.2, "noise_shape": null, "seed": null}, "name": "mc_dropout_40", "inbound_nodes": [[["conv2d_135", 0, 0, {}]]]}, {"class_name": "Activation", "config": {"name": "activation_76", "trainable": true, "dtype": "float32", "activation": "relu"}, "name": "activation_76", "inbound_nodes": [[["mc_dropout_40", 0, 0, {}]]]}, {"class_name": "Add", "config": {"name": "add_18", "trainable": true, "dtype": "float32"}, "name": "add_18", "inbound_nodes": [[["activation_76", 0, 0, {}], ["conv2d_134", 0, 0, {}]]]}, {"class_name": "Conv2D", "config": {"name": "conv2d_136", "trainable": true, "dtype": "float32", "filters": 64, "kernel_size": [3, 3], "strides": [1, 1], "padding": "same", "data_format": "channels_last", "dilation_rate": [1, 1], "groups": 1, "activation": "linear", "use_bias": true, "kernel_initializer": {"class_name": "GlorotUniform", "config": {"seed": null}}, "bias_initializer": {"class_name": "Zeros", "config": {}}, "kernel_regularizer": null, "bias_regularizer": null, "activity_regularizer": null, "kernel_constraint": null, "bias_constraint": null}, "name": "conv2d_136", "inbound_nodes": [[["add_18", 0, 0, {}]]]}, {"class_name": "Activation", "config": {"name": "activation_77", "trainable": true, "dtype": "float32", "activation": "relu"}, "name": "activation_77", "inbound_nodes": [[["conv2d_136", 0, 0, {}]]]}, {"class_name": "Add", "config": {"name": "add_19", "trainable": true, "dtype": "float32"}, "name": "add_19", "inbound_nodes": [[["activation_77", 0, 0, {}], ["conv2d_134", 0, 0, {}]]]}, {"class_name": "Conv2D", "config": {"name": "conv2d_137", "trainable": true, "dtype": "float32", "filters": 64, "kernel_size": [3, 3], "strides": [1, 1], "padding": "same", "data_format": "channels_last", "dilation_rate": [1, 1], "groups": 1, "activation": "linear", "use_bias": true, "kernel_initializer": {"class_name": "GlorotUniform", "config": {"seed": null}}, "bias_initializer": {"class_name": "Zeros", "config": {}}, "kernel_regularizer": null, "bias_regularizer": null, "activity_regularizer": null, "kernel_constraint": null, "bias_constraint": null}, "name": "conv2d_137", "inbound_nodes": [[["add_19", 0, 0, {}]]]}, {"class_name": "Activation", "config": {"name": "activation_78", "trainable": true, "dtype": "float32", "activation": "relu"}, "name": "activation_78", "inbound_nodes": [[["conv2d_137", 0, 0, {}]]]}, {"class_name": "Conv2D", "config": {"name": "conv2d_138", "trainable": true, "dtype": "float32", "filters": 64, "kernel_size": [3, 3], "strides": [1, 1], "padding": "same", "data_format": "channels_last", "dilation_rate": [1, 1], "groups": 1, "activation": "linear", "use_bias": true, "kernel_initializer": {"class_name": "GlorotUniform", "config": {"seed": null}}, "bias_initializer": {"class_name": "Zeros", "config": {}}, "kernel_regularizer": null, "bias_regularizer": null, "activity_regularizer": null, "kernel_constraint": null, "bias_constraint": null}, "name": "conv2d_138", "inbound_nodes": [[["activation_78", 0, 0, {}]]]}, {"class_name": "MCDropout", "config": {"name": "mc_dropout_41", "trainable": true, "dtype": "float32", "rate": 0.2, "noise_shape": null, "seed": null}, "name": "mc_dropout_41", "inbound_nodes": [[["conv2d_138", 0, 0, {}]]]}, {"class_name": "Activation", "config": {"name": "activation_79", "trainable": true, "dtype": "float32", "activation": "relu"}, "name": "activation_79", "inbound_nodes": [[["mc_dropout_41", 0, 0, {}]]]}, {"class_name": "Add", "config": {"name": "add_20", "trainable": true, "dtype": "float32"}, "name": "add_20", "inbound_nodes": [[["activation_79", 0, 0, {}], ["activation_78", 0, 0, {}]]]}, {"class_name": "Conv2D", "config": {"name": "conv2d_139", "trainable": true, "dtype": "float32", "filters": 64, "kernel_size": [3, 3], "strides": [1, 1], "padding": "same", "data_format": "channels_last", "dilation_rate": [1, 1], "groups": 1, "activation": "linear", "use_bias": true, "kernel_initializer": {"class_name": "GlorotUniform", "config": {"seed": null}}, "bias_initializer": {"class_name": "Zeros", "config": {}}, "kernel_regularizer": null, "bias_regularizer": null, "activity_regularizer": null, "kernel_constraint": null, "bias_constraint": null}, "name": "conv2d_139", "inbound_nodes": [[["add_20", 0, 0, {}]]]}, {"class_name": "Activation", "config": {"name": "activation_80", "trainable": true, "dtype": "float32", "activation": "relu"}, "name": "activation_80", "inbound_nodes": [[["conv2d_139", 0, 0, {}]]]}, {"class_name": "Add", "config": {"name": "add_21", "trainable": true, "dtype": "float32"}, "name": "add_21", "inbound_nodes": [[["activation_80", 0, 0, {}], ["activation_78", 0, 0, {}]]]}, {"class_name": "Conv2D", "config": {"name": "conv2d_140", "trainable": true, "dtype": "float32", "filters": 64, "kernel_size": [3, 3], "strides": [1, 1], "padding": "same", "data_format": "channels_last", "dilation_rate": [1, 1], "groups": 1, "activation": "linear", "use_bias": true, "kernel_initializer": {"class_name": "GlorotUniform", "config": {"seed": null}}, "bias_initializer": {"class_name": "Zeros", "config": {}}, "kernel_regularizer": null, "bias_regularizer": null, "activity_regularizer": null, "kernel_constraint": null, "bias_constraint": null}, "name": "conv2d_140", "inbound_nodes": [[["add_21", 0, 0, {}]]]}, {"class_name": "Activation", "config": {"name": "activation_81", "trainable": true, "dtype": "float32", "activation": "relu"}, "name": "activation_81", "inbound_nodes": [[["conv2d_140", 0, 0, {}]]]}, {"class_name": "Add", "config": {"name": "add_22", "trainable": true, "dtype": "float32"}, "name": "add_22", "inbound_nodes": [[["activation_81", 0, 0, {}], ["conv2d_134", 0, 0, {}]]]}, {"class_name": "MaxPooling2D", "config": {"name": "max_pooling2d_18", "trainable": true, "dtype": "float32", "pool_size": [2, 2], "padding": "valid", "strides": [2, 2], "data_format": "channels_last"}, "name": "max_pooling2d_18", "inbound_nodes": [[["add_22", 0, 0, {}]]]}, {"class_name": "Conv2D", "config": {"name": "conv2d_141", "trainable": true, "dtype": "float32", "filters": 128, "kernel_size": [1, 1], "strides": [1, 1], "padding": "same", "data_format": "channels_last", "dilation_rate": [1, 1], "groups": 1, "activation": "linear", "use_bias": true, "kernel_initializer": {"class_name": "GlorotUniform", "config": {"seed": null}}, "bias_initializer": {"class_name": "Zeros", "config": {}}, "kernel_regularizer": null, "bias_regularizer": null, "activity_regularizer": null, "kernel_constraint": null, "bias_constraint": null}, "name": "conv2d_141", "inbound_nodes": [[["max_pooling2d_18", 0, 0, {}]]]}, {"class_name": "Conv2D", "config": {"name": "conv2d_142", "trainable": true, "dtype": "float32", "filters": 128, "kernel_size": [3, 3], "strides": [1, 1], "padding": "same", "data_format": "channels_last", "dilation_rate": [1, 1], "groups": 1, "activation": "linear", "use_bias": true, "kernel_initializer": {"class_name": "GlorotUniform", "config": {"seed": null}}, "bias_initializer": {"class_name": "Zeros", "config": {}}, "kernel_regularizer": null, "bias_regularizer": null, "activity_regularizer": null, "kernel_constraint": null, "bias_constraint": null}, "name": "conv2d_142", "inbound_nodes": [[["conv2d_141", 0, 0, {}]]]}, {"class_name": "MCDropout", "config": {"name": "mc_dropout_42", "trainable": true, "dtype": "float32", "rate": 0.2, "noise_shape": null, "seed": null}, "name": "mc_dropout_42", "inbound_nodes": [[["conv2d_142", 0, 0, {}]]]}, {"class_name": "Activation", "config": {"name": "activation_82", "trainable": true, "dtype": "float32", "activation": "relu"}, "name": "activation_82", "inbound_nodes": [[["mc_dropout_42", 0, 0, {}]]]}, {"class_name": "Add", "config": {"name": "add_23", "trainable": true, "dtype": "float32"}, "name": "add_23", "inbound_nodes": [[["activation_82", 0, 0, {}], ["conv2d_141", 0, 0, {}]]]}, {"class_name": "Conv2D", "config": {"name": "conv2d_143", "trainable": true, "dtype": "float32", "filters": 128, "kernel_size": [3, 3], "strides": [1, 1], "padding": "same", "data_format": "channels_last", "dilation_rate": [1, 1], "groups": 1, "activation": "linear", "use_bias": true, "kernel_initializer": {"class_name": "GlorotUniform", "config": {"seed": null}}, "bias_initializer": {"class_name": "Zeros", "config": {}}, "kernel_regularizer": null, "bias_regularizer": null, "activity_regularizer": null, "kernel_constraint": null, "bias_constraint": null}, "name": "conv2d_143", "inbound_nodes": [[["add_23", 0, 0, {}]]]}, {"class_name": "Activation", "config": {"name": "activation_83", "trainable": true, "dtype": "float32", "activation": "relu"}, "name": "activation_83", "inbound_nodes": [[["conv2d_143", 0, 0, {}]]]}, {"class_name": "Add", "config": {"name": "add_24", "trainable": true, "dtype": "float32"}, "name": "add_24", "inbound_nodes": [[["activation_83", 0, 0, {}], ["conv2d_141", 0, 0, {}]]]}, {"class_name": "Conv2D", "config": {"name": "conv2d_144", "trainable": true, "dtype": "float32", "filters": 128, "kernel_size": [3, 3], "strides": [1, 1], "padding": "same", "data_format": "channels_last", "dilation_rate": [1, 1], "groups": 1, "activation": "linear", "use_bias": true, "kernel_initializer": {"class_name": "GlorotUniform", "config": {"seed": null}}, "bias_initializer": {"class_name": "Zeros", "config": {}}, "kernel_regularizer": null, "bias_regularizer": null, "activity_regularizer": null, "kernel_constraint": null, "bias_constraint": null}, "name": "conv2d_144", "inbound_nodes": [[["add_24", 0, 0, {}]]]}, {"class_name": "Activation", "config": {"name": "activation_84", "trainable": true, "dtype": "float32", "activation": "relu"}, "name": "activation_84", "inbound_nodes": [[["conv2d_144", 0, 0, {}]]]}, {"class_name": "Conv2D", "config": {"name": "conv2d_145", "trainable": true, "dtype": "float32", "filters": 128, "kernel_size": [3, 3], "strides": [1, 1], "padding": "same", "data_format": "channels_last", "dilation_rate": [1, 1], "groups": 1, "activation": "linear", "use_bias": true, "kernel_initializer": {"class_name": "GlorotUniform", "config": {"seed": null}}, "bias_initializer": {"class_name": "Zeros", "config": {}}, "kernel_regularizer": null, "bias_regularizer": null, "activity_regularizer": null, "kernel_constraint": null, "bias_constraint": null}, "name": "conv2d_145", "inbound_nodes": [[["activation_84", 0, 0, {}]]]}, {"class_name": "MCDropout", "config": {"name": "mc_dropout_43", "trainable": true, "dtype": "float32", "rate": 0.2, "noise_shape": null, "seed": null}, "name": "mc_dropout_43", "inbound_nodes": [[["conv2d_145", 0, 0, {}]]]}, {"class_name": "Activation", "config": {"name": "activation_85", "trainable": true, "dtype": "float32", "activation": "relu"}, "name": "activation_85", "inbound_nodes": [[["mc_dropout_43", 0, 0, {}]]]}, {"class_name": "Add", "config": {"name": "add_25", "trainable": true, "dtype": "float32"}, "name": "add_25", "inbound_nodes": [[["activation_85", 0, 0, {}], ["activation_84", 0, 0, {}]]]}, {"class_name": "Conv2D", "config": {"name": "conv2d_146", "trainable": true, "dtype": "float32", "filters": 128, "kernel_size": [3, 3], "strides": [1, 1], "padding": "same", "data_format": "channels_last", "dilation_rate": [1, 1], "groups": 1, "activation": "linear", "use_bias": true, "kernel_initializer": {"class_name": "GlorotUniform", "config": {"seed": null}}, "bias_initializer": {"class_name": "Zeros", "config": {}}, "kernel_regularizer": null, "bias_regularizer": null, "activity_regularizer": null, "kernel_constraint": null, "bias_constraint": null}, "name": "conv2d_146", "inbound_nodes": [[["add_25", 0, 0, {}]]]}, {"class_name": "Activation", "config": {"name": "activation_86", "trainable": true, "dtype": "float32", "activation": "relu"}, "name": "activation_86", "inbound_nodes": [[["conv2d_146", 0, 0, {}]]]}, {"class_name": "Add", "config": {"name": "add_26", "trainable": true, "dtype": "float32"}, "name": "add_26", "inbound_nodes": [[["activation_86", 0, 0, {}], ["activation_84", 0, 0, {}]]]}, {"class_name": "Conv2D", "config": {"name": "conv2d_147", "trainable": true, "dtype": "float32", "filters": 128, "kernel_size": [3, 3], "strides": [1, 1], "padding": "same", "data_format": "channels_last", "dilation_rate": [1, 1], "groups": 1, "activation": "linear", "use_bias": true, "kernel_initializer": {"class_name": "GlorotUniform", "config": {"seed": null}}, "bias_initializer": {"class_name": "Zeros", "config": {}}, "kernel_regularizer": null, "bias_regularizer": null, "activity_regularizer": null, "kernel_constraint": null, "bias_constraint": null}, "name": "conv2d_147", "inbound_nodes": [[["add_26", 0, 0, {}]]]}, {"class_name": "Activation", "config": {"name": "activation_87", "trainable": true, "dtype": "float32", "activation": "relu"}, "name": "activation_87", "inbound_nodes": [[["conv2d_147", 0, 0, {}]]]}, {"class_name": "Add", "config": {"name": "add_27", "trainable": true, "dtype": "float32"}, "name": "add_27", "inbound_nodes": [[["activation_87", 0, 0, {}], ["conv2d_141", 0, 0, {}]]]}, {"class_name": "MaxPooling2D", "config": {"name": "max_pooling2d_19", "trainable": true, "dtype": "float32", "pool_size": [2, 2], "padding": "valid", "strides": [2, 2], "data_format": "channels_last"}, "name": "max_pooling2d_19", "inbound_nodes": [[["add_27", 0, 0, {}]]]}, {"class_name": "Conv2D", "config": {"name": "conv2d_148", "trainable": true, "dtype": "float32", "filters": 256, "kernel_size": [1, 1], "strides": [1, 1], "padding": "same", "data_format": "channels_last", "dilation_rate": [1, 1], "groups": 1, "activation": "linear", "use_bias": true, "kernel_initializer": {"class_name": "GlorotUniform", "config": {"seed": null}}, "bias_initializer": {"class_name": "Zeros", "config": {}}, "kernel_regularizer": null, "bias_regularizer": null, "activity_regularizer": null, "kernel_constraint": null, "bias_constraint": null}, "name": "conv2d_148", "inbound_nodes": [[["max_pooling2d_19", 0, 0, {}]]]}, {"class_name": "Conv2D", "config": {"name": "conv2d_149", "trainable": true, "dtype": "float32", "filters": 256, "kernel_size": [3, 3], "strides": [1, 1], "padding": "same", "data_format": "channels_last", "dilation_rate": [1, 1], "groups": 1, "activation": "linear", "use_bias": true, "kernel_initializer": {"class_name": "GlorotUniform", "config": {"seed": null}}, "bias_initializer": {"class_name": "Zeros", "config": {}}, "kernel_regularizer": null, "bias_regularizer": null, "activity_regularizer": null, "kernel_constraint": null, "bias_constraint": null}, "name": "conv2d_149", "inbound_nodes": [[["conv2d_148", 0, 0, {}]]]}, {"class_name": "MCDropout", "config": {"name": "mc_dropout_44", "trainable": true, "dtype": "float32", "rate": 0.2, "noise_shape": null, "seed": null}, "name": "mc_dropout_44", "inbound_nodes": [[["conv2d_149", 0, 0, {}]]]}, {"class_name": "Activation", "config": {"name": "activation_88", "trainable": true, "dtype": "float32", "activation": "relu"}, "name": "activation_88", "inbound_nodes": [[["mc_dropout_44", 0, 0, {}]]]}, {"class_name": "Add", "config": {"name": "add_28", "trainable": true, "dtype": "float32"}, "name": "add_28", "inbound_nodes": [[["activation_88", 0, 0, {}], ["conv2d_148", 0, 0, {}]]]}, {"class_name": "Conv2D", "config": {"name": "conv2d_150", "trainable": true, "dtype": "float32", "filters": 256, "kernel_size": [3, 3], "strides": [1, 1], "padding": "same", "data_format": "channels_last", "dilation_rate": [1, 1], "groups": 1, "activation": "linear", "use_bias": true, "kernel_initializer": {"class_name": "GlorotUniform", "config": {"seed": null}}, "bias_initializer": {"class_name": "Zeros", "config": {}}, "kernel_regularizer": null, "bias_regularizer": null, "activity_regularizer": null, "kernel_constraint": null, "bias_constraint": null}, "name": "conv2d_150", "inbound_nodes": [[["add_28", 0, 0, {}]]]}, {"class_name": "Activation", "config": {"name": "activation_89", "trainable": true, "dtype": "float32", "activation": "relu"}, "name": "activation_89", "inbound_nodes": [[["conv2d_150", 0, 0, {}]]]}, {"class_name": "Add", "config": {"name": "add_29", "trainable": true, "dtype": "float32"}, "name": "add_29", "inbound_nodes": [[["activation_89", 0, 0, {}], ["conv2d_148", 0, 0, {}]]]}, {"class_name": "Conv2D", "config": {"name": "conv2d_151", "trainable": true, "dtype": "float32", "filters": 256, "kernel_size": [3, 3], "strides": [1, 1], "padding": "same", "data_format": "channels_last", "dilation_rate": [1, 1], "groups": 1, "activation": "linear", "use_bias": true, "kernel_initializer": {"class_name": "GlorotUniform", "config": {"seed": null}}, "bias_initializer": {"class_name": "Zeros", "config": {}}, "kernel_regularizer": null, "bias_regularizer": null, "activity_regularizer": null, "kernel_constraint": null, "bias_constraint": null}, "name": "conv2d_151", "inbound_nodes": [[["add_29", 0, 0, {}]]]}, {"class_name": "Activation", "config": {"name": "activation_90", "trainable": true, "dtype": "float32", "activation": "relu"}, "name": "activation_90", "inbound_nodes": [[["conv2d_151", 0, 0, {}]]]}, {"class_name": "Conv2D", "config": {"name": "conv2d_152", "trainable": true, "dtype": "float32", "filters": 256, "kernel_size": [3, 3], "strides": [1, 1], "padding": "same", "data_format": "channels_last", "dilation_rate": [1, 1], "groups": 1, "activation": "linear", "use_bias": true, "kernel_initializer": {"class_name": "GlorotUniform", "config": {"seed": null}}, "bias_initializer": {"class_name": "Zeros", "config": {}}, "kernel_regularizer": null, "bias_regularizer": null, "activity_regularizer": null, "kernel_constraint": null, "bias_constraint": null}, "name": "conv2d_152", "inbound_nodes": [[["activation_90", 0, 0, {}]]]}, {"class_name": "MCDropout", "config": {"name": "mc_dropout_45", "trainable": true, "dtype": "float32", "rate": 0.2, "noise_shape": null, "seed": null}, "name": "mc_dropout_45", "inbound_nodes": [[["conv2d_152", 0, 0, {}]]]}, {"class_name": "Activation", "config": {"name": "activation_91", "trainable": true, "dtype": "float32", "activation": "relu"}, "name": "activation_91", "inbound_nodes": [[["mc_dropout_45", 0, 0, {}]]]}, {"class_name": "Add", "config": {"name": "add_30", "trainable": true, "dtype": "float32"}, "name": "add_30", "inbound_nodes": [[["activation_91", 0, 0, {}], ["activation_90", 0, 0, {}]]]}, {"class_name": "Conv2D", "config": {"name": "conv2d_153", "trainable": true, "dtype": "float32", "filters": 256, "kernel_size": [3, 3], "strides": [1, 1], "padding": "same", "data_format": "channels_last", "dilation_rate": [1, 1], "groups": 1, "activation": "linear", "use_bias": true, "kernel_initializer": {"class_name": "GlorotUniform", "config": {"seed": null}}, "bias_initializer": {"class_name": "Zeros", "config": {}}, "kernel_regularizer": null, "bias_regularizer": null, "activity_regularizer": null, "kernel_constraint": null, "bias_constraint": null}, "name": "conv2d_153", "inbound_nodes": [[["add_30", 0, 0, {}]]]}, {"class_name": "Activation", "config": {"name": "activation_92", "trainable": true, "dtype": "float32", "activation": "relu"}, "name": "activation_92", "inbound_nodes": [[["conv2d_153", 0, 0, {}]]]}, {"class_name": "Add", "config": {"name": "add_31", "trainable": true, "dtype": "float32"}, "name": "add_31", "inbound_nodes": [[["activation_92", 0, 0, {}], ["activation_90", 0, 0, {}]]]}, {"class_name": "Conv2D", "config": {"name": "conv2d_154", "trainable": true, "dtype": "float32", "filters": 256, "kernel_size": [3, 3], "strides": [1, 1], "padding": "same", "data_format": "channels_last", "dilation_rate": [1, 1], "groups": 1, "activation": "linear", "use_bias": true, "kernel_initializer": {"class_name": "GlorotUniform", "config": {"seed": null}}, "bias_initializer": {"class_name": "Zeros", "config": {}}, "kernel_regularizer": null, "bias_regularizer": null, "activity_regularizer": null, "kernel_constraint": null, "bias_constraint": null}, "name": "conv2d_154", "inbound_nodes": [[["add_31", 0, 0, {}]]]}, {"class_name": "Activation", "config": {"name": "activation_93", "trainable": true, "dtype": "float32", "activation": "relu"}, "name": "activation_93", "inbound_nodes": [[["conv2d_154", 0, 0, {}]]]}, {"class_name": "Add", "config": {"name": "add_32", "trainable": true, "dtype": "float32"}, "name": "add_32", "inbound_nodes": [[["activation_93", 0, 0, {}], ["conv2d_148", 0, 0, {}]]]}, {"class_name": "UpSampling2D", "config": {"name": "up_sampling2d_12", "trainable": true, "dtype": "float32", "size": [2, 2], "data_format": "channels_last", "interpolation": "nearest"}, "name": "up_sampling2d_12", "inbound_nodes": [[["add_32", 0, 0, {}]]]}, {"class_name": "Lambda", "config": {"name": "lambda_8", "trainable": true, "dtype": "float32", "function": ["4wEAAAAAAAAAAAAAAAEAAAAEAAAAUwAAAHMaAAAAdABqAXwAZAEZAHwAZAIZAGcCZANkBI0CUwCp\nBU7pAAAAAOkBAAAA6QMAAACpAdoEYXhpc6kC2gFL2gtjb25jYXRlbmF0ZakB2gF4qQByDAAAAPov\nL3Jvb3QvRGF0YXNldF9wY2EvZHBfbW9kZWxzL2F0dG5fbXVsdGlfbW9kZWwucHnaCDxsYW1iZGE+\nGQAAAPMAAAAA\n", null, null], "function_type": "lambda", "module": "dp_models.attn_multi_model", "output_shape": null, "output_shape_type": "raw", "output_shape_module": null, "arguments": {}}, "name": "lambda_8", "inbound_nodes": [[["up_sampling2d_12", 0, 0, {}], ["add_27", 0, 0, {}]]]}, {"class_name": "Conv2D", "config": {"name": "conv2d_155", "trainable": true, "dtype": "float32", "filters": 128, "kernel_size": [1, 1], "strides": [1, 1], "padding": "same", "data_format": "channels_last", "dilation_rate": [1, 1], "groups": 1, "activation": "linear", "use_bias": true, "kernel_initializer": {"class_name": "GlorotUniform", "config": {"seed": null}}, "bias_initializer": {"class_name": "Zeros", "config": {}}, "kernel_regularizer": null, "bias_regularizer": null, "activity_regularizer": null, "kernel_constraint": null, "bias_constraint": null}, "name": "conv2d_155", "inbound_nodes": [[["lambda_8", 0, 0, {}]]]}, {"class_name": "Conv2D", "config": {"name": "conv2d_156", "trainable": true, "dtype": "float32", "filters": 128, "kernel_size": [3, 3], "strides": [1, 1], "padding": "same", "data_format": "channels_last", "dilation_rate": [1, 1], "groups": 1, "activation": "linear", "use_bias": true, "kernel_initializer": {"class_name": "GlorotUniform", "config": {"seed": null}}, "bias_initializer": {"class_name": "Zeros", "config": {}}, "kernel_regularizer": null, "bias_regularizer": null, "activity_regularizer": null, "kernel_constraint": null, "bias_constraint": null}, "name": "conv2d_156", "inbound_nodes": [[["conv2d_155", 0, 0, {}]]]}, {"class_name": "MCDropout", "config": {"name": "mc_dropout_46", "trainable": true, "dtype": "float32", "rate": 0.2, "noise_shape": null, "seed": null}, "name": "mc_dropout_46", "inbound_nodes": [[["conv2d_156", 0, 0, {}]]]}, {"class_name": "Activation", "config": {"name": "activation_94", "trainable": true, "dtype": "float32", "activation": "relu"}, "name": "activation_94", "inbound_nodes": [[["mc_dropout_46", 0, 0, {}]]]}, {"class_name": "Add", "config": {"name": "add_33", "trainable": true, "dtype": "float32"}, "name": "add_33", "inbound_nodes": [[["activation_94", 0, 0, {}], ["conv2d_155", 0, 0, {}]]]}, {"class_name": "Conv2D", "config": {"name": "conv2d_157", "trainable": true, "dtype": "float32", "filters": 128, "kernel_size": [3, 3], "strides": [1, 1], "padding": "same", "data_format": "channels_last", "dilation_rate": [1, 1], "groups": 1, "activation": "linear", "use_bias": true, "kernel_initializer": {"class_name": "GlorotUniform", "config": {"seed": null}}, "bias_initializer": {"class_name": "Zeros", "config": {}}, "kernel_regularizer": null, "bias_regularizer": null, "activity_regularizer": null, "kernel_constraint": null, "bias_constraint": null}, "name": "conv2d_157", "inbound_nodes": [[["add_33", 0, 0, {}]]]}, {"class_name": "Activation", "config": {"name": "activation_95", "trainable": true, "dtype": "float32", "activation": "relu"}, "name": "activation_95", "inbound_nodes": [[["conv2d_157", 0, 0, {}]]]}, {"class_name": "Add", "config": {"name": "add_34", "trainable": true, "dtype": "float32"}, "name": "add_34", "inbound_nodes": [[["activation_95", 0, 0, {}], ["conv2d_155", 0, 0, {}]]]}, {"class_name": "Conv2D", "config": {"name": "conv2d_158", "trainable": true, "dtype": "float32", "filters": 128, "kernel_size": [3, 3], "strides": [1, 1], "padding": "same", "data_format": "channels_last", "dilation_rate": [1, 1], "groups": 1, "activation": "linear", "use_bias": true, "kernel_initializer": {"class_name": "GlorotUniform", "config": {"seed": null}}, "bias_initializer": {"class_name": "Zeros", "config": {}}, "kernel_regularizer": null, "bias_regularizer": null, "activity_regularizer": null, "kernel_constraint": null, "bias_constraint": null}, "name": "conv2d_158", "inbound_nodes": [[["add_34", 0, 0, {}]]]}, {"class_name": "Activation", "config": {"name": "activation_96", "trainable": true, "dtype": "float32", "activation": "relu"}, "name": "activation_96", "inbound_nodes": [[["conv2d_158", 0, 0, {}]]]}, {"class_name": "Conv2D", "config": {"name": "conv2d_159", "trainable": true, "dtype": "float32", "filters": 128, "kernel_size": [3, 3], "strides": [1, 1], "padding": "same", "data_format": "channels_last", "dilation_rate": [1, 1], "groups": 1, "activation": "linear", "use_bias": true, "kernel_initializer": {"class_name": "GlorotUniform", "config": {"seed": null}}, "bias_initializer": {"class_name": "Zeros", "config": {}}, "kernel_regularizer": null, "bias_regularizer": null, "activity_regularizer": null, "kernel_constraint": null, "bias_constraint": null}, "name": "conv2d_159", "inbound_nodes": [[["activation_96", 0, 0, {}]]]}, {"class_name": "MCDropout", "config": {"name": "mc_dropout_47", "trainable": true, "dtype": "float32", "rate": 0.2, "noise_shape": null, "seed": null}, "name": "mc_dropout_47", "inbound_nodes": [[["conv2d_159", 0, 0, {}]]]}, {"class_name": "Activation", "config": {"name": "activation_97", "trainable": true, "dtype": "float32", "activation": "relu"}, "name": "activation_97", "inbound_nodes": [[["mc_dropout_47", 0, 0, {}]]]}, {"class_name": "Add", "config": {"name": "add_35", "trainable": true, "dtype": "float32"}, "name": "add_35", "inbound_nodes": [[["activation_97", 0, 0, {}], ["activation_96", 0, 0, {}]]]}, {"class_name": "Conv2D", "config": {"name": "conv2d_160", "trainable": true, "dtype": "float32", "filters": 128, "kernel_size": [3, 3], "strides": [1, 1], "padding": "same", "data_format": "channels_last", "dilation_rate": [1, 1], "groups": 1, "activation": "linear", "use_bias": true, "kernel_initializer": {"class_name": "GlorotUniform", "config": {"seed": null}}, "bias_initializer": {"class_name": "Zeros", "config": {}}, "kernel_regularizer": null, "bias_regularizer": null, "activity_regularizer": null, "kernel_constraint": null, "bias_constraint": null}, "name": "conv2d_160", "inbound_nodes": [[["add_35", 0, 0, {}]]]}, {"class_name": "Activation", "config": {"name": "activation_98", "trainable": true, "dtype": "float32", "activation": "relu"}, "name": "activation_98", "inbound_nodes": [[["conv2d_160", 0, 0, {}]]]}, {"class_name": "Add", "config": {"name": "add_36", "trainable": true, "dtype": "float32"}, "name": "add_36", "inbound_nodes": [[["activation_98", 0, 0, {}], ["activation_96", 0, 0, {}]]]}, {"class_name": "Conv2D", "config": {"name": "conv2d_161", "trainable": true, "dtype": "float32", "filters": 128, "kernel_size": [3, 3], "strides": [1, 1], "padding": "same", "data_format": "channels_last", "dilation_rate": [1, 1], "groups": 1, "activation": "linear", "use_bias": true, "kernel_initializer": {"class_name": "GlorotUniform", "config": {"seed": null}}, "bias_initializer": {"class_name": "Zeros", "config": {}}, "kernel_regularizer": null, "bias_regularizer": null, "activity_regularizer": null, "kernel_constraint": null, "bias_constraint": null}, "name": "conv2d_161", "inbound_nodes": [[["add_36", 0, 0, {}]]]}, {"class_name": "Activation", "config": {"name": "activation_99", "trainable": true, "dtype": "float32", "activation": "relu"}, "name": "activation_99", "inbound_nodes": [[["conv2d_161", 0, 0, {}]]]}, {"class_name": "Add", "config": {"name": "add_37", "trainable": true, "dtype": "float32"}, "name": "add_37", "inbound_nodes": [[["activation_99", 0, 0, {}], ["conv2d_155", 0, 0, {}]]]}, {"class_name": "UpSampling2D", "config": {"name": "up_sampling2d_13", "trainable": true, "dtype": "float32", "size": [2, 2], "data_format": "channels_last", "interpolation": "nearest"}, "name": "up_sampling2d_13", "inbound_nodes": [[["add_37", 0, 0, {}]]]}, {"class_name": "Lambda", "config": {"name": "lambda_9", "trainable": true, "dtype": "float32", "function": ["4wEAAAAAAAAAAAAAAAEAAAAEAAAAUwAAAHMaAAAAdABqAXwAZAEZAHwAZAIZAGcCZANkBI0CUwCp\nBU7pAAAAAOkBAAAA6QMAAACpAdoEYXhpc6kC2gFL2gtjb25jYXRlbmF0ZakB2gF4qQByDAAAAPov\nL3Jvb3QvRGF0YXNldF9wY2EvZHBfbW9kZWxzL2F0dG5fbXVsdGlfbW9kZWwucHnaCDxsYW1iZGE+\nGQAAAPMAAAAA\n", null, null], "function_type": "lambda", "module": "dp_models.attn_multi_model", "output_shape": null, "output_shape_type": "raw", "output_shape_module": null, "arguments": {}}, "name": "lambda_9", "inbound_nodes": [[["up_sampling2d_13", 0, 0, {}], ["add_22", 0, 0, {}]]]}, {"class_name": "Conv2D", "config": {"name": "conv2d_162", "trainable": true, "dtype": "float32", "filters": 64, "kernel_size": [1, 1], "strides": [1, 1], "padding": "same", "data_format": "channels_last", "dilation_rate": [1, 1], "groups": 1, "activation": "linear", "use_bias": true, "kernel_initializer": {"class_name": "GlorotUniform", "config": {"seed": null}}, "bias_initializer": {"class_name": "Zeros", "config": {}}, "kernel_regularizer": null, "bias_regularizer": null, "activity_regularizer": null, "kernel_constraint": null, "bias_constraint": null}, "name": "conv2d_162", "inbound_nodes": [[["lambda_9", 0, 0, {}]]]}, {"class_name": "Conv2D", "config": {"name": "conv2d_163", "trainable": true, "dtype": "float32", "filters": 64, "kernel_size": [3, 3], "strides": [1, 1], "padding": "same", "data_format": "channels_last", "dilation_rate": [1, 1], "groups": 1, "activation": "linear", "use_bias": true, "kernel_initializer": {"class_name": "GlorotUniform", "config": {"seed": null}}, "bias_initializer": {"class_name": "Zeros", "config": {}}, "kernel_regularizer": null, "bias_regularizer": null, "activity_regularizer": null, "kernel_constraint": null, "bias_constraint": null}, "name": "conv2d_163", "inbound_nodes": [[["conv2d_162", 0, 0, {}]]]}, {"class_name": "MCDropout", "config": {"name": "mc_dropout_48", "trainable": true, "dtype": "float32", "rate": 0.2, "noise_shape": null, "seed": null}, "name": "mc_dropout_48", "inbound_nodes": [[["conv2d_163", 0, 0, {}]]]}, {"class_name": "Activation", "config": {"name": "activation_100", "trainable": true, "dtype": "float32", "activation": "relu"}, "name": "activation_100", "inbound_nodes": [[["mc_dropout_48", 0, 0, {}]]]}, {"class_name": "Add", "config": {"name": "add_38", "trainable": true, "dtype": "float32"}, "name": "add_38", "inbound_nodes": [[["activation_100", 0, 0, {}], ["conv2d_162", 0, 0, {}]]]}, {"class_name": "Conv2D", "config": {"name": "conv2d_164", "trainable": true, "dtype": "float32", "filters": 64, "kernel_size": [3, 3], "strides": [1, 1], "padding": "same", "data_format": "channels_last", "dilation_rate": [1, 1], "groups": 1, "activation": "linear", "use_bias": true, "kernel_initializer": {"class_name": "GlorotUniform", "config": {"seed": null}}, "bias_initializer": {"class_name": "Zeros", "config": {}}, "kernel_regularizer": null, "bias_regularizer": null, "activity_regularizer": null, "kernel_constraint": null, "bias_constraint": null}, "name": "conv2d_164", "inbound_nodes": [[["add_38", 0, 0, {}]]]}, {"class_name": "Activation", "config": {"name": "activation_101", "trainable": true, "dtype": "float32", "activation": "relu"}, "name": "activation_101", "inbound_nodes": [[["conv2d_164", 0, 0, {}]]]}, {"class_name": "Add", "config": {"name": "add_39", "trainable": true, "dtype": "float32"}, "name": "add_39", "inbound_nodes": [[["activation_101", 0, 0, {}], ["conv2d_162", 0, 0, {}]]]}, {"class_name": "Conv2D", "config": {"name": "conv2d_165", "trainable": true, "dtype": "float32", "filters": 64, "kernel_size": [3, 3], "strides": [1, 1], "padding": "same", "data_format": "channels_last", "dilation_rate": [1, 1], "groups": 1, "activation": "linear", "use_bias": true, "kernel_initializer": {"class_name": "GlorotUniform", "config": {"seed": null}}, "bias_initializer": {"class_name": "Zeros", "config": {}}, "kernel_regularizer": null, "bias_regularizer": null, "activity_regularizer": null, "kernel_constraint": null, "bias_constraint": null}, "name": "conv2d_165", "inbound_nodes": [[["add_39", 0, 0, {}]]]}, {"class_name": "Activation", "config": {"name": "activation_102", "trainable": true, "dtype": "float32", "activation": "relu"}, "name": "activation_102", "inbound_nodes": [[["conv2d_165", 0, 0, {}]]]}, {"class_name": "Conv2D", "config": {"name": "conv2d_166", "trainable": true, "dtype": "float32", "filters": 64, "kernel_size": [3, 3], "strides": [1, 1], "padding": "same", "data_format": "channels_last", "dilation_rate": [1, 1], "groups": 1, "activation": "linear", "use_bias": true, "kernel_initializer": {"class_name": "GlorotUniform", "config": {"seed": null}}, "bias_initializer": {"class_name": "Zeros", "config": {}}, "kernel_regularizer": null, "bias_regularizer": null, "activity_regularizer": null, "kernel_constraint": null, "bias_constraint": null}, "name": "conv2d_166", "inbound_nodes": [[["activation_102", 0, 0, {}]]]}, {"class_name": "MCDropout", "config": {"name": "mc_dropout_49", "trainable": true, "dtype": "float32", "rate": 0.2, "noise_shape": null, "seed": null}, "name": "mc_dropout_49", "inbound_nodes": [[["conv2d_166", 0, 0, {}]]]}, {"class_name": "Activation", "config": {"name": "activation_103", "trainable": true, "dtype": "float32", "activation": "relu"}, "name": "activation_103", "inbound_nodes": [[["mc_dropout_49", 0, 0, {}]]]}, {"class_name": "Add", "config": {"name": "add_40", "trainable": true, "dtype": "float32"}, "name": "add_40", "inbound_nodes": [[["activation_103", 0, 0, {}], ["activation_102", 0, 0, {}]]]}, {"class_name": "Conv2D", "config": {"name": "conv2d_167", "trainable": true, "dtype": "float32", "filters": 64, "kernel_size": [3, 3], "strides": [1, 1], "padding": "same", "data_format": "channels_last", "dilation_rate": [1, 1], "groups": 1, "activation": "linear", "use_bias": true, "kernel_initializer": {"class_name": "GlorotUniform", "config": {"seed": null}}, "bias_initializer": {"class_name": "Zeros", "config": {}}, "kernel_regularizer": null, "bias_regularizer": null, "activity_regularizer": null, "kernel_constraint": null, "bias_constraint": null}, "name": "conv2d_167", "inbound_nodes": [[["add_40", 0, 0, {}]]]}, {"class_name": "Activation", "config": {"name": "activation_104", "trainable": true, "dtype": "float32", "activation": "relu"}, "name": "activation_104", "inbound_nodes": [[["conv2d_167", 0, 0, {}]]]}, {"class_name": "Add", "config": {"name": "add_41", "trainable": true, "dtype": "float32"}, "name": "add_41", "inbound_nodes": [[["activation_104", 0, 0, {}], ["activation_102", 0, 0, {}]]]}, {"class_name": "Conv2D", "config": {"name": "conv2d_168", "trainable": true, "dtype": "float32", "filters": 64, "kernel_size": [3, 3], "strides": [1, 1], "padding": "same", "data_format": "channels_last", "dilation_rate": [1, 1], "groups": 1, "activation": "linear", "use_bias": true, "kernel_initializer": {"class_name": "GlorotUniform", "config": {"seed": null}}, "bias_initializer": {"class_name": "Zeros", "config": {}}, "kernel_regularizer": null, "bias_regularizer": null, "activity_regularizer": null, "kernel_constraint": null, "bias_constraint": null}, "name": "conv2d_168", "inbound_nodes": [[["add_41", 0, 0, {}]]]}, {"class_name": "Activation", "config": {"name": "activation_105", "trainable": true, "dtype": "float32", "activation": "relu"}, "name": "activation_105", "inbound_nodes": [[["conv2d_168", 0, 0, {}]]]}, {"class_name": "Add", "config": {"name": "add_42", "trainable": true, "dtype": "float32"}, "name": "add_42", "inbound_nodes": [[["activation_105", 0, 0, {}], ["conv2d_162", 0, 0, {}]]]}, {"class_name": "UpSampling2D", "config": {"name": "up_sampling2d_14", "trainable": true, "dtype": "float32", "size": [2, 2], "data_format": "channels_last", "interpolation": "nearest"}, "name": "up_sampling2d_14", "inbound_nodes": [[["add_42", 0, 0, {}]]]}, {"class_name": "Lambda", "config": {"name": "lambda_10", "trainable": true, "dtype": "float32", "function": ["4wEAAAAAAAAAAAAAAAEAAAAEAAAAUwAAAHMaAAAAdABqAXwAZAEZAHwAZAIZAGcCZANkBI0CUwCp\nBU7pAAAAAOkBAAAA6QMAAACpAdoEYXhpc6kC2gFL2gtjb25jYXRlbmF0ZakB2gF4qQByDAAAAPov\nL3Jvb3QvRGF0YXNldF9wY2EvZHBfbW9kZWxzL2F0dG5fbXVsdGlfbW9kZWwucHnaCDxsYW1iZGE+\nGQAAAPMAAAAA\n", null, null], "function_type": "lambda", "module": "dp_models.attn_multi_model", "output_shape": null, "output_shape_type": "raw", "output_shape_module": null, "arguments": {}}, "name": "lambda_10", "inbound_nodes": [[["up_sampling2d_14", 0, 0, {}], ["add_17", 0, 0, {}]]]}, {"class_name": "Conv2D", "config": {"name": "conv2d_169", "trainable": true, "dtype": "float32", "filters": 32, "kernel_size": [1, 1], "strides": [1, 1], "padding": "same", "data_format": "channels_last", "dilation_rate": [1, 1], "groups": 1, "activation": "linear", "use_bias": true, "kernel_initializer": {"class_name": "GlorotUniform", "config": {"seed": null}}, "bias_initializer": {"class_name": "Zeros", "config": {}}, "kernel_regularizer": null, "bias_regularizer": null, "activity_regularizer": null, "kernel_constraint": null, "bias_constraint": null}, "name": "conv2d_169", "inbound_nodes": [[["lambda_10", 0, 0, {}]]]}, {"class_name": "Conv2D", "config": {"name": "conv2d_170", "trainable": true, "dtype": "float32", "filters": 32, "kernel_size": [3, 3], "strides": [1, 1], "padding": "same", "data_format": "channels_last", "dilation_rate": [1, 1], "groups": 1, "activation": "linear", "use_bias": true, "kernel_initializer": {"class_name": "GlorotUniform", "config": {"seed": null}}, "bias_initializer": {"class_name": "Zeros", "config": {}}, "kernel_regularizer": null, "bias_regularizer": null, "activity_regularizer": null, "kernel_constraint": null, "bias_constraint": null}, "name": "conv2d_170", "inbound_nodes": [[["conv2d_169", 0, 0, {}]]]}, {"class_name": "MCDropout", "config": {"name": "mc_dropout_50", "trainable": true, "dtype": "float32", "rate": 0.2, "noise_shape": null, "seed": null}, "name": "mc_dropout_50", "inbound_nodes": [[["conv2d_170", 0, 0, {}]]]}, {"class_name": "Activation", "config": {"name": "activation_106", "trainable": true, "dtype": "float32", "activation": "relu"}, "name": "activation_106", "inbound_nodes": [[["mc_dropout_50", 0, 0, {}]]]}, {"class_name": "Add", "config": {"name": "add_43", "trainable": true, "dtype": "float32"}, "name": "add_43", "inbound_nodes": [[["activation_106", 0, 0, {}], ["conv2d_169", 0, 0, {}]]]}, {"class_name": "Conv2D", "config": {"name": "conv2d_171", "trainable": true, "dtype": "float32", "filters": 32, "kernel_size": [3, 3], "strides": [1, 1], "padding": "same", "data_format": "channels_last", "dilation_rate": [1, 1], "groups": 1, "activation": "linear", "use_bias": true, "kernel_initializer": {"class_name": "GlorotUniform", "config": {"seed": null}}, "bias_initializer": {"class_name": "Zeros", "config": {}}, "kernel_regularizer": null, "bias_regularizer": null, "activity_regularizer": null, "kernel_constraint": null, "bias_constraint": null}, "name": "conv2d_171", "inbound_nodes": [[["add_43", 0, 0, {}]]]}, {"class_name": "Activation", "config": {"name": "activation_107", "trainable": true, "dtype": "float32", "activation": "relu"}, "name": "activation_107", "inbound_nodes": [[["conv2d_171", 0, 0, {}]]]}, {"class_name": "Add", "config": {"name": "add_44", "trainable": true, "dtype": "float32"}, "name": "add_44", "inbound_nodes": [[["activation_107", 0, 0, {}], ["conv2d_169", 0, 0, {}]]]}, {"class_name": "Conv2D", "config": {"name": "conv2d_172", "trainable": true, "dtype": "float32", "filters": 32, "kernel_size": [3, 3], "strides": [1, 1], "padding": "same", "data_format": "channels_last", "dilation_rate": [1, 1], "groups": 1, "activation": "linear", "use_bias": true, "kernel_initializer": {"class_name": "GlorotUniform", "config": {"seed": null}}, "bias_initializer": {"class_name": "Zeros", "config": {}}, "kernel_regularizer": null, "bias_regularizer": null, "activity_regularizer": null, "kernel_constraint": null, "bias_constraint": null}, "name": "conv2d_172", "inbound_nodes": [[["add_44", 0, 0, {}]]]}, {"class_name": "Activation", "config": {"name": "activation_108", "trainable": true, "dtype": "float32", "activation": "relu"}, "name": "activation_108", "inbound_nodes": [[["conv2d_172", 0, 0, {}]]]}, {"class_name": "Conv2D", "config": {"name": "conv2d_173", "trainable": true, "dtype": "float32", "filters": 32, "kernel_size": [3, 3], "strides": [1, 1], "padding": "same", "data_format": "channels_last", "dilation_rate": [1, 1], "groups": 1, "activation": "linear", "use_bias": true, "kernel_initializer": {"class_name": "GlorotUniform", "config": {"seed": null}}, "bias_initializer": {"class_name": "Zeros", "config": {}}, "kernel_regularizer": null, "bias_regularizer": null, "activity_regularizer": null, "kernel_constraint": null, "bias_constraint": null}, "name": "conv2d_173", "inbound_nodes": [[["activation_108", 0, 0, {}]]]}, {"class_name": "MCDropout", "config": {"name": "mc_dropout_51", "trainable": true, "dtype": "float32", "rate": 0.2, "noise_shape": null, "seed": null}, "name": "mc_dropout_51", "inbound_nodes": [[["conv2d_173", 0, 0, {}]]]}, {"class_name": "Activation", "config": {"name": "activation_109", "trainable": true, "dtype": "float32", "activation": "relu"}, "name": "activation_109", "inbound_nodes": [[["mc_dropout_51", 0, 0, {}]]]}, {"class_name": "Add", "config": {"name": "add_45", "trainable": true, "dtype": "float32"}, "name": "add_45", "inbound_nodes": [[["activation_109", 0, 0, {}], ["activation_108", 0, 0, {}]]]}, {"class_name": "Conv2D", "config": {"name": "conv2d_174", "trainable": true, "dtype": "float32", "filters": 32, "kernel_size": [3, 3], "strides": [1, 1], "padding": "same", "data_format": "channels_last", "dilation_rate": [1, 1], "groups": 1, "activation": "linear", "use_bias": true, "kernel_initializer": {"class_name": "GlorotUniform", "config": {"seed": null}}, "bias_initializer": {"class_name": "Zeros", "config": {}}, "kernel_regularizer": null, "bias_regularizer": null, "activity_regularizer": null, "kernel_constraint": null, "bias_constraint": null}, "name": "conv2d_174", "inbound_nodes": [[["add_45", 0, 0, {}]]]}, {"class_name": "Activation", "config": {"name": "activation_110", "trainable": true, "dtype": "float32", "activation": "relu"}, "name": "activation_110", "inbound_nodes": [[["conv2d_174", 0, 0, {}]]]}, {"class_name": "Add", "config": {"name": "add_46", "trainable": true, "dtype": "float32"}, "name": "add_46", "inbound_nodes": [[["activation_110", 0, 0, {}], ["activation_108", 0, 0, {}]]]}, {"class_name": "Conv2D", "config": {"name": "conv2d_175", "trainable": true, "dtype": "float32", "filters": 32, "kernel_size": [3, 3], "strides": [1, 1], "padding": "same", "data_format": "channels_last", "dilation_rate": [1, 1], "groups": 1, "activation": "linear", "use_bias": true, "kernel_initializer": {"class_name": "GlorotUniform", "config": {"seed": null}}, "bias_initializer": {"class_name": "Zeros", "config": {}}, "kernel_regularizer": null, "bias_regularizer": null, "activity_regularizer": null, "kernel_constraint": null, "bias_constraint": null}, "name": "conv2d_175", "inbound_nodes": [[["add_46", 0, 0, {}]]]}, {"class_name": "Activation", "config": {"name": "activation_111", "trainable": true, "dtype": "float32", "activation": "relu"}, "name": "activation_111", "inbound_nodes": [[["conv2d_175", 0, 0, {}]]]}, {"class_name": "Add", "config": {"name": "add_47", "trainable": true, "dtype": "float32"}, "name": "add_47", "inbound_nodes": [[["activation_111", 0, 0, {}], ["conv2d_169", 0, 0, {}]]]}, {"class_name": "UpSampling2D", "config": {"name": "up_sampling2d_15", "trainable": true, "dtype": "float32", "size": [2, 2], "data_format": "channels_last", "interpolation": "nearest"}, "name": "up_sampling2d_15", "inbound_nodes": [[["add_47", 0, 0, {}]]]}, {"class_name": "Lambda", "config": {"name": "lambda_11", "trainable": true, "dtype": "float32", "function": ["4wEAAAAAAAAAAAAAAAEAAAAEAAAAUwAAAHMaAAAAdABqAXwAZAEZAHwAZAIZAGcCZANkBI0CUwCp\nBU7pAAAAAOkBAAAA6QMAAACpAdoEYXhpc6kC2gFL2gtjb25jYXRlbmF0ZakB2gF4qQByDAAAAPov\nL3Jvb3QvRGF0YXNldF9wY2EvZHBfbW9kZWxzL2F0dG5fbXVsdGlfbW9kZWwucHnaCDxsYW1iZGE+\nGQAAAPMAAAAA\n", null, null], "function_type": "lambda", "module": "dp_models.attn_multi_model", "output_shape": null, "output_shape_type": "raw", "output_shape_module": null, "arguments": {}}, "name": "lambda_11", "inbound_nodes": [[["up_sampling2d_15", 0, 0, {}], ["add_12", 0, 0, {}]]]}, {"class_name": "Conv2D", "config": {"name": "conv2d_176", "trainable": true, "dtype": "float32", "filters": 16, "kernel_size": [1, 1], "strides": [1, 1], "padding": "same", "data_format": "channels_last", "dilation_rate": [1, 1], "groups": 1, "activation": "linear", "use_bias": true, "kernel_initializer": {"class_name": "GlorotUniform", "config": {"seed": null}}, "bias_initializer": {"class_name": "Zeros", "config": {}}, "kernel_regularizer": null, "bias_regularizer": null, "activity_regularizer": null, "kernel_constraint": null, "bias_constraint": null}, "name": "conv2d_176", "inbound_nodes": [[["lambda_11", 0, 0, {}]]]}, {"class_name": "Conv2D", "config": {"name": "conv2d_177", "trainable": true, "dtype": "float32", "filters": 16, "kernel_size": [3, 3], "strides": [1, 1], "padding": "same", "data_format": "channels_last", "dilation_rate": [1, 1], "groups": 1, "activation": "linear", "use_bias": true, "kernel_initializer": {"class_name": "GlorotUniform", "config": {"seed": null}}, "bias_initializer": {"class_name": "Zeros", "config": {}}, "kernel_regularizer": null, "bias_regularizer": null, "activity_regularizer": null, "kernel_constraint": null, "bias_constraint": null}, "name": "conv2d_177", "inbound_nodes": [[["conv2d_176", 0, 0, {}]]]}, {"class_name": "MCDropout", "config": {"name": "mc_dropout_52", "trainable": true, "dtype": "float32", "rate": 0.2, "noise_shape": null, "seed": null}, "name": "mc_dropout_52", "inbound_nodes": [[["conv2d_177", 0, 0, {}]]]}, {"class_name": "Activation", "config": {"name": "activation_112", "trainable": true, "dtype": "float32", "activation": "relu"}, "name": "activation_112", "inbound_nodes": [[["mc_dropout_52", 0, 0, {}]]]}, {"class_name": "Add", "config": {"name": "add_48", "trainable": true, "dtype": "float32"}, "name": "add_48", "inbound_nodes": [[["activation_112", 0, 0, {}], ["conv2d_176", 0, 0, {}]]]}, {"class_name": "Conv2D", "config": {"name": "conv2d_178", "trainable": true, "dtype": "float32", "filters": 16, "kernel_size": [3, 3], "strides": [1, 1], "padding": "same", "data_format": "channels_last", "dilation_rate": [1, 1], "groups": 1, "activation": "linear", "use_bias": true, "kernel_initializer": {"class_name": "GlorotUniform", "config": {"seed": null}}, "bias_initializer": {"class_name": "Zeros", "config": {}}, "kernel_regularizer": null, "bias_regularizer": null, "activity_regularizer": null, "kernel_constraint": null, "bias_constraint": null}, "name": "conv2d_178", "inbound_nodes": [[["add_48", 0, 0, {}]]]}, {"class_name": "Activation", "config": {"name": "activation_113", "trainable": true, "dtype": "float32", "activation": "relu"}, "name": "activation_113", "inbound_nodes": [[["conv2d_178", 0, 0, {}]]]}, {"class_name": "Add", "config": {"name": "add_49", "trainable": true, "dtype": "float32"}, "name": "add_49", "inbound_nodes": [[["activation_113", 0, 0, {}], ["conv2d_176", 0, 0, {}]]]}, {"class_name": "Conv2D", "config": {"name": "conv2d_179", "trainable": true, "dtype": "float32", "filters": 16, "kernel_size": [3, 3], "strides": [1, 1], "padding": "same", "data_format": "channels_last", "dilation_rate": [1, 1], "groups": 1, "activation": "linear", "use_bias": true, "kernel_initializer": {"class_name": "GlorotUniform", "config": {"seed": null}}, "bias_initializer": {"class_name": "Zeros", "config": {}}, "kernel_regularizer": null, "bias_regularizer": null, "activity_regularizer": null, "kernel_constraint": null, "bias_constraint": null}, "name": "conv2d_179", "inbound_nodes": [[["add_49", 0, 0, {}]]]}, {"class_name": "Activation", "config": {"name": "activation_114", "trainable": true, "dtype": "float32", "activation": "relu"}, "name": "activation_114", "inbound_nodes": [[["conv2d_179", 0, 0, {}]]]}, {"class_name": "Conv2D", "config": {"name": "conv2d_180", "trainable": true, "dtype": "float32", "filters": 16, "kernel_size": [3, 3], "strides": [1, 1], "padding": "same", "data_format": "channels_last", "dilation_rate": [1, 1], "groups": 1, "activation": "linear", "use_bias": true, "kernel_initializer": {"class_name": "GlorotUniform", "config": {"seed": null}}, "bias_initializer": {"class_name": "Zeros", "config": {}}, "kernel_regularizer": null, "bias_regularizer": null, "activity_regularizer": null, "kernel_constraint": null, "bias_constraint": null}, "name": "conv2d_180", "inbound_nodes": [[["activation_114", 0, 0, {}]]]}, {"class_name": "MCDropout", "config": {"name": "mc_dropout_53", "trainable": true, "dtype": "float32", "rate": 0.2, "noise_shape": null, "seed": null}, "name": "mc_dropout_53", "inbound_nodes": [[["conv2d_180", 0, 0, {}]]]}, {"class_name": "Activation", "config": {"name": "activation_115", "trainable": true, "dtype": "float32", "activation": "relu"}, "name": "activation_115", "inbound_nodes": [[["mc_dropout_53", 0, 0, {}]]]}, {"class_name": "Add", "config": {"name": "add_50", "trainable": true, "dtype": "float32"}, "name": "add_50", "inbound_nodes": [[["activation_115", 0, 0, {}], ["activation_114", 0, 0, {}]]]}, {"class_name": "Conv2D", "config": {"name": "conv2d_181", "trainable": true, "dtype": "float32", "filters": 16, "kernel_size": [3, 3], "strides": [1, 1], "padding": "same", "data_format": "channels_last", "dilation_rate": [1, 1], "groups": 1, "activation": "linear", "use_bias": true, "kernel_initializer": {"class_name": "GlorotUniform", "config": {"seed": null}}, "bias_initializer": {"class_name": "Zeros", "config": {}}, "kernel_regularizer": null, "bias_regularizer": null, "activity_regularizer": null, "kernel_constraint": null, "bias_constraint": null}, "name": "conv2d_181", "inbound_nodes": [[["add_50", 0, 0, {}]]]}, {"class_name": "Activation", "config": {"name": "activation_116", "trainable": true, "dtype": "float32", "activation": "relu"}, "name": "activation_116", "inbound_nodes": [[["conv2d_181", 0, 0, {}]]]}, {"class_name": "Add", "config": {"name": "add_51", "trainable": true, "dtype": "float32"}, "name": "add_51", "inbound_nodes": [[["activation_116", 0, 0, {}], ["activation_114", 0, 0, {}]]]}, {"class_name": "Conv2D", "config": {"name": "conv2d_182", "trainable": true, "dtype": "float32", "filters": 16, "kernel_size": [3, 3], "strides": [1, 1], "padding": "same", "data_format": "channels_last", "dilation_rate": [1, 1], "groups": 1, "activation": "linear", "use_bias": true, "kernel_initializer": {"class_name": "GlorotUniform", "config": {"seed": null}}, "bias_initializer": {"class_name": "Zeros", "config": {}}, "kernel_regularizer": null, "bias_regularizer": null, "activity_regularizer": null, "kernel_constraint": null, "bias_constraint": null}, "name": "conv2d_182", "inbound_nodes": [[["add_51", 0, 0, {}]]]}, {"class_name": "Activation", "config": {"name": "activation_117", "trainable": true, "dtype": "float32", "activation": "relu"}, "name": "activation_117", "inbound_nodes": [[["conv2d_182", 0, 0, {}]]]}, {"class_name": "Add", "config": {"name": "add_52", "trainable": true, "dtype": "float32"}, "name": "add_52", "inbound_nodes": [[["activation_117", 0, 0, {}], ["conv2d_176", 0, 0, {}]]]}, {"class_name": "Conv2D", "config": {"name": "conv2d_183", "trainable": true, "dtype": "float32", "filters": 5, "kernel_size": [1, 1], "strides": [1, 1], "padding": "same", "data_format": "channels_last", "dilation_rate": [1, 1], "groups": 1, "activation": "linear", "use_bias": true, "kernel_initializer": {"class_name": "GlorotUniform", "config": {"seed": null}}, "bias_initializer": {"class_name": "Zeros", "config": {}}, "kernel_regularizer": null, "bias_regularizer": null, "activity_regularizer": null, "kernel_constraint": null, "bias_constraint": null}, "name": "conv2d_183", "inbound_nodes": [[["add_52", 0, 0, {}]]]}, {"class_name": "Activation", "config": {"name": "activation_118", "trainable": true, "dtype": "float32", "activation": "softmax"}, "name": "activation_118", "inbound_nodes": [[["conv2d_183", 0, 0, {}]]]}], "input_layers": [["input_5", 0, 0]], "output_layers": [["activation_118", 0, 0]]}, "keras_version": "2.10.0", "backend": "tensorflow"}